<?xml version="1.0"?>
<net name="Model0" version="11">
	<layers>
		<layer id="3" name="input_ids" type="Parameter" version="opset1">
			<data shape="?,?" element_type="i64" />
			<output>
				<port id="0" precision="I64" names="input_ids">
					<dim>-1</dim>
					<dim>-1</dim>
				</port>
			</output>
		</layer>
		<layer id="2" name="attention_mask" type="Parameter" version="opset1">
			<data shape="?,?" element_type="i64" />
			<output>
				<port id="0" precision="I64" names="attention_mask">
					<dim>-1</dim>
					<dim>-1</dim>
				</port>
			</output>
		</layer>
		<layer id="1" name="position_ids" type="Parameter" version="opset1">
			<data shape="?,?" element_type="i64" />
			<output>
				<port id="0" precision="I64" names="position_ids">
					<dim>-1</dim>
					<dim>-1</dim>
				</port>
			</output>
		</layer>
		<layer id="0" name="beam_idx" type="Parameter" version="opset1">
			<data shape="?" element_type="i32" />
			<output>
				<port id="0" precision="I32" names="beam_idx">
					<dim>-1</dim>
				</port>
			</output>
		</layer>
		<layer id="4" name="Constant_61595" type="Const" version="opset1">
			<data element_type="f32" shape="" offset="0" size="4" />
			<output>
				<port id="0" precision="FP32" />
			</output>
		</layer>
		<layer id="5" name="ShapeOf_61581" type="ShapeOf" version="opset3">
			<data output_type="i64" />
			<input>
				<port id="0" precision="I64">
					<dim>-1</dim>
					<dim>-1</dim>
				</port>
			</input>
			<output>
				<port id="1" precision="I64">
					<dim>2</dim>
				</port>
			</output>
		</layer>
		<layer id="6" name="Constant_61583" type="Const" version="opset1">
			<data element_type="i32" shape="1" offset="0" size="4" />
			<output>
				<port id="0" precision="I32">
					<dim>1</dim>
				</port>
			</output>
		</layer>
		<layer id="7" name="Constant_61585" type="Const" version="opset1">
			<data element_type="i32" shape="" offset="0" size="4" />
			<output>
				<port id="0" precision="I32" />
			</output>
		</layer>
		<layer id="8" name="Gather_61586" type="Gather" version="opset8">
			<data batch_dims="0" />
			<input>
				<port id="0" precision="I64">
					<dim>2</dim>
				</port>
				<port id="1" precision="I32">
					<dim>1</dim>
				</port>
				<port id="2" precision="I32" />
			</input>
			<output>
				<port id="3" precision="I64">
					<dim>1</dim>
				</port>
			</output>
		</layer>
		<layer id="9" name="Constant_61588" type="Const" version="opset1">
			<data element_type="i64" shape="1" offset="4" size="8" />
			<output>
				<port id="0" precision="I64">
					<dim>1</dim>
				</port>
			</output>
		</layer>
		<layer id="10" name="Constant_61590" type="Const" version="opset1">
			<data element_type="i64" shape="1" offset="12" size="8" />
			<output>
				<port id="0" precision="I64">
					<dim>1</dim>
				</port>
			</output>
		</layer>
		<layer id="11" name="Constant_61592" type="Const" version="opset1">
			<data element_type="i64" shape="1" offset="20" size="8" />
			<output>
				<port id="0" precision="I64">
					<dim>1</dim>
				</port>
			</output>
		</layer>
		<layer id="12" name="Concat_61593" type="Concat" version="opset1">
			<data axis="0" />
			<input>
				<port id="0" precision="I64">
					<dim>1</dim>
				</port>
				<port id="1" precision="I64">
					<dim>1</dim>
				</port>
				<port id="2" precision="I64">
					<dim>1</dim>
				</port>
				<port id="3" precision="I64">
					<dim>1</dim>
				</port>
			</input>
			<output>
				<port id="4" precision="I64">
					<dim>4</dim>
				</port>
			</output>
		</layer>
		<layer id="13" name="Broadcast_61596" type="Broadcast" version="opset3">
			<data mode="numpy" />
			<input>
				<port id="0" precision="FP32" />
				<port id="1" precision="I64">
					<dim>4</dim>
				</port>
			</input>
			<output>
				<port id="2" precision="FP32">
					<dim>-1</dim>
					<dim>4</dim>
					<dim>0</dim>
					<dim>64</dim>
				</port>
			</output>
		</layer>
		<layer id="14" name="ReadValue_61205" type="ReadValue" version="opset6">
			<data variable_id="past_key_values.9.valuepresent.9.value" variable_type="f32" variable_shape="?,4,?,64" />
			<input>
				<port id="0" precision="FP32">
					<dim>-1</dim>
					<dim>4</dim>
					<dim>0</dim>
					<dim>64</dim>
				</port>
			</input>
			<output>
				<port id="1" precision="FP32" names="past_key_values.9.value">
					<dim>-1</dim>
					<dim>4</dim>
					<dim>-1</dim>
					<dim>64</dim>
				</port>
			</output>
		</layer>
		<layer id="15" name="Constant_60671" type="Const" version="opset1">
			<data element_type="i32" shape="" offset="0" size="4" />
			<output>
				<port id="0" precision="I32" />
			</output>
		</layer>
		<layer id="16" name="Gather_60672" type="Gather" version="opset8">
			<data batch_dims="0" />
			<input>
				<port id="0" precision="FP32">
					<dim>-1</dim>
					<dim>4</dim>
					<dim>-1</dim>
					<dim>64</dim>
				</port>
				<port id="1" precision="I32">
					<dim>-1</dim>
				</port>
				<port id="2" precision="I32" />
			</input>
			<output>
				<port id="3" precision="FP32">
					<dim>-1</dim>
					<dim>4</dim>
					<dim>-1</dim>
					<dim>64</dim>
				</port>
			</output>
		</layer>
		<layer id="17" name="Constant_52671" type="Const" version="opset1">
			<data element_type="f32" shape="1, 1, 2048" offset="28" size="8192" />
			<output>
				<port id="0" precision="FP32">
					<dim>1</dim>
					<dim>1</dim>
					<dim>2048</dim>
				</port>
			</output>
		</layer>
		<layer id="18" name="self.model.embed_tokens.weight" type="Const" version="opset1">
			<data element_type="u8" shape="32000, 2048" offset="8220" size="65536000" />
			<output>
				<port id="0" precision="U8">
					<dim>32000</dim>
					<dim>2048</dim>
				</port>
			</output>
		</layer>
		<layer id="19" name="Convert_76495" type="Convert" version="opset1">
			<data destination_type="f16" />
			<input>
				<port id="0" precision="U8">
					<dim>32000</dim>
					<dim>2048</dim>
				</port>
			</input>
			<output>
				<port id="1" precision="FP16">
					<dim>32000</dim>
					<dim>2048</dim>
				</port>
			</output>
		</layer>
		<layer id="20" name="self.model.embed_tokens.weight/zero_point" type="Const" version="opset1">
			<data element_type="u8" shape="32000, 1" offset="65544220" size="32000" />
			<output>
				<port id="0" precision="U8">
					<dim>32000</dim>
					<dim>1</dim>
				</port>
			</output>
		</layer>
		<layer id="21" name="Convert_76498" type="Convert" version="opset1">
			<data destination_type="f16" />
			<input>
				<port id="0" precision="U8">
					<dim>32000</dim>
					<dim>1</dim>
				</port>
			</input>
			<output>
				<port id="1" precision="FP16">
					<dim>32000</dim>
					<dim>1</dim>
				</port>
			</output>
		</layer>
		<layer id="22" name="self.model.embed_tokens.weight/zero_point/subtract" type="Subtract" version="opset1">
			<data auto_broadcast="numpy" />
			<input>
				<port id="0" precision="FP16">
					<dim>32000</dim>
					<dim>2048</dim>
				</port>
				<port id="1" precision="FP16">
					<dim>32000</dim>
					<dim>1</dim>
				</port>
			</input>
			<output>
				<port id="2" precision="FP16">
					<dim>32000</dim>
					<dim>2048</dim>
				</port>
			</output>
		</layer>
		<layer id="23" name="self.model.embed_tokens.weight/scale" type="Const" version="opset1">
			<data element_type="f16" shape="32000, 1" offset="65576220" size="64000" />
			<output>
				<port id="0" precision="FP16">
					<dim>32000</dim>
					<dim>1</dim>
				</port>
			</output>
		</layer>
		<layer id="24" name="self.model.embed_tokens.weight/fq_weights_0" type="Multiply" version="opset1">
			<data auto_broadcast="numpy" />
			<input>
				<port id="0" precision="FP16">
					<dim>32000</dim>
					<dim>2048</dim>
				</port>
				<port id="1" precision="FP16">
					<dim>32000</dim>
					<dim>1</dim>
				</port>
			</input>
			<output>
				<port id="2" precision="FP16">
					<dim>32000</dim>
					<dim>2048</dim>
				</port>
			</output>
		</layer>
		<layer id="25" name="self.model.embed_tokens.weight/fq_weights_0/convert" type="Convert" version="opset1">
			<data destination_type="f32" />
			<input>
				<port id="0" precision="FP16">
					<dim>32000</dim>
					<dim>2048</dim>
				</port>
			</input>
			<output>
				<port id="1" precision="FP32">
					<dim>32000</dim>
					<dim>2048</dim>
				</port>
			</output>
		</layer>
		<layer id="26" name="__module.model.embed_tokens/aten::embedding/Convert" type="Convert" version="opset1">
			<data destination_type="i32" />
			<input>
				<port id="0" precision="I64">
					<dim>-1</dim>
					<dim>-1</dim>
				</port>
			</input>
			<output>
				<port id="1" precision="I32">
					<dim>-1</dim>
					<dim>-1</dim>
				</port>
			</output>
		</layer>
		<layer id="27" name="__module.model.embed_tokens/aten::embedding/Constant" type="Const" version="opset1">
			<data element_type="i32" shape="" offset="0" size="4" />
			<output>
				<port id="0" precision="I32" />
			</output>
		</layer>
		<layer id="28" name="__module.model.embed_tokens/aten::embedding/Gather" type="Gather" version="opset8">
			<data batch_dims="0" />
			<input>
				<port id="0" precision="FP32">
					<dim>32000</dim>
					<dim>2048</dim>
				</port>
				<port id="1" precision="I32">
					<dim>-1</dim>
					<dim>-1</dim>
				</port>
				<port id="2" precision="I32" />
			</input>
			<output>
				<port id="3" precision="FP32" names="236,316,327,hidden_states.1,inputs_embeds">
					<dim>-1</dim>
					<dim>-1</dim>
					<dim>2048</dim>
				</port>
			</output>
		</layer>
		<layer id="29" name="Constant_52580" type="Const" version="opset1">
			<data element_type="f32" shape="1, 1, 2048" offset="65640220" size="8192" />
			<output>
				<port id="0" precision="FP32">
					<dim>1</dim>
					<dim>1</dim>
					<dim>2048</dim>
				</port>
			</output>
		</layer>
		<layer id="30" name="Constant_52579" type="Const" version="opset1">
			<data element_type="f32" shape="1, 1, 1" offset="65648412" size="4" />
			<output>
				<port id="0" precision="FP32">
					<dim>1</dim>
					<dim>1</dim>
					<dim>1</dim>
				</port>
			</output>
		</layer>
		<layer id="31" name="Constant_52577" type="Const" version="opset1">
			<data element_type="f32" shape="1, 1, 1" offset="65648416" size="4" />
			<output>
				<port id="0" precision="FP32">
					<dim>1</dim>
					<dim>1</dim>
					<dim>1</dim>
				</port>
			</output>
		</layer>
		<layer id="32" name="__module.model.layers.0.input_layernorm/aten::pow/Power" type="Power" version="opset1">
			<data auto_broadcast="numpy" />
			<input>
				<port id="0" precision="FP32">
					<dim>-1</dim>
					<dim>-1</dim>
					<dim>2048</dim>
				</port>
				<port id="1" precision="FP32">
					<dim>1</dim>
					<dim>1</dim>
					<dim>1</dim>
				</port>
			</input>
			<output>
				<port id="2" precision="FP32" names="317">
					<dim>-1</dim>
					<dim>-1</dim>
					<dim>2048</dim>
				</port>
			</output>
		</layer>
		<layer id="33" name="Constant_611" type="Const" version="opset1">
			<data element_type="i64" shape="1" offset="65648420" size="8" />
			<output>
				<port id="0" precision="I64" names="318">
					<dim>1</dim>
				</port>
			</output>
		</layer>
		<layer id="34" name="__module.model.layers.0.input_layernorm/aten::mean/ReduceMean" type="ReduceMean" version="opset1">
			<data keep_dims="true" />
			<input>
				<port id="0" precision="FP32">
					<dim>-1</dim>
					<dim>-1</dim>
					<dim>2048</dim>
				</port>
				<port id="1" precision="I64">
					<dim>1</dim>
				</port>
			</input>
			<output>
				<port id="2" precision="FP32" names="319,variance.1">
					<dim>-1</dim>
					<dim>-1</dim>
					<dim>1</dim>
				</port>
			</output>
		</layer>
		<layer id="35" name="Constant_52578" type="Const" version="opset1">
			<data element_type="f32" shape="1, 1, 1" offset="65648428" size="4" />
			<output>
				<port id="0" precision="FP32">
					<dim>1</dim>
					<dim>1</dim>
					<dim>1</dim>
				</port>
			</output>
		</layer>
		<layer id="36" name="__module.model.layers.0.input_layernorm/aten::add/Add" type="Add" version="opset1">
			<data auto_broadcast="numpy" />
			<input>
				<port id="0" precision="FP32">
					<dim>-1</dim>
					<dim>-1</dim>
					<dim>1</dim>
				</port>
				<port id="1" precision="FP32">
					<dim>1</dim>
					<dim>1</dim>
					<dim>1</dim>
				</port>
			</input>
			<output>
				<port id="2" precision="FP32" names="320">
					<dim>-1</dim>
					<dim>-1</dim>
					<dim>1</dim>
				</port>
			</output>
		</layer>
		<layer id="37" name="__module.model.layers.0.input_layernorm/aten::rsqrt/Sqrt" type="Sqrt" version="opset1">
			<input>
				<port id="0" precision="FP32">
					<dim>-1</dim>
					<dim>-1</dim>
					<dim>1</dim>
				</port>
			</input>
			<output>
				<port id="1" precision="FP32">
					<dim>-1</dim>
					<dim>-1</dim>
					<dim>1</dim>
				</port>
			</output>
		</layer>
		<layer id="38" name="__module.model.layers.0.input_layernorm/aten::rsqrt/Divide" type="Divide" version="opset1">
			<data auto_broadcast="numpy" m_pythondiv="true" />
			<input>
				<port id="0" precision="FP32">
					<dim>1</dim>
					<dim>1</dim>
					<dim>1</dim>
				</port>
				<port id="1" precision="FP32">
					<dim>-1</dim>
					<dim>-1</dim>
					<dim>1</dim>
				</port>
			</input>
			<output>
				<port id="2" precision="FP32" names="321">
					<dim>-1</dim>
					<dim>-1</dim>
					<dim>1</dim>
				</port>
			</output>
		</layer>
		<layer id="39" name="__module.model.layers.0.input_layernorm/aten::mul/Multiply" type="Multiply" version="opset1">
			<data auto_broadcast="numpy" />
			<input>
				<port id="0" precision="FP32">
					<dim>-1</dim>
					<dim>-1</dim>
					<dim>2048</dim>
				</port>
				<port id="1" precision="FP32">
					<dim>-1</dim>
					<dim>-1</dim>
					<dim>1</dim>
				</port>
			</input>
			<output>
				<port id="2" precision="FP32" names="322,323,hidden_states.3,hidden_states.5">
					<dim>-1</dim>
					<dim>-1</dim>
					<dim>2048</dim>
				</port>
			</output>
		</layer>
		<layer id="40" name="__module.model.layers.0.input_layernorm/aten::mul/Multiply_1" type="Multiply" version="opset1">
			<data auto_broadcast="numpy" />
			<input>
				<port id="0" precision="FP32">
					<dim>1</dim>
					<dim>1</dim>
					<dim>2048</dim>
				</port>
				<port id="1" precision="FP32">
					<dim>-1</dim>
					<dim>-1</dim>
					<dim>2048</dim>
				</port>
			</input>
			<output>
				<port id="2" precision="FP32" names="324,326,hidden_states.7">
					<dim>-1</dim>
					<dim>-1</dim>
					<dim>2048</dim>
				</port>
			</output>
		</layer>
		<layer id="41" name="self.model.layers.0.self_attn.q_proj.weight" type="Const" version="opset1">
			<data element_type="u8" shape="2048, 2048" offset="65648432" size="4194304" />
			<output>
				<port id="0" precision="U8">
					<dim>2048</dim>
					<dim>2048</dim>
				</port>
			</output>
		</layer>
		<layer id="42" name="Convert_364679" type="Convert" version="opset1">
			<data destination_type="f16" />
			<input>
				<port id="0" precision="U8">
					<dim>2048</dim>
					<dim>2048</dim>
				</port>
			</input>
			<output>
				<port id="1" precision="FP16">
					<dim>2048</dim>
					<dim>2048</dim>
				</port>
			</output>
		</layer>
		<layer id="43" name="self.model.layers.0.self_attn.q_proj.weight/zero_point" type="Const" version="opset1">
			<data element_type="u8" shape="2048, 1" offset="69842736" size="2048" />
			<output>
				<port id="0" precision="U8">
					<dim>2048</dim>
					<dim>1</dim>
				</port>
			</output>
		</layer>
		<layer id="44" name="Convert_364682" type="Convert" version="opset1">
			<data destination_type="f16" />
			<input>
				<port id="0" precision="U8">
					<dim>2048</dim>
					<dim>1</dim>
				</port>
			</input>
			<output>
				<port id="1" precision="FP16">
					<dim>2048</dim>
					<dim>1</dim>
				</port>
			</output>
		</layer>
		<layer id="45" name="self.model.layers.0.self_attn.q_proj.weight/zero_point/subtract" type="Subtract" version="opset1">
			<data auto_broadcast="numpy" />
			<input>
				<port id="0" precision="FP16">
					<dim>2048</dim>
					<dim>2048</dim>
				</port>
				<port id="1" precision="FP16">
					<dim>2048</dim>
					<dim>1</dim>
				</port>
			</input>
			<output>
				<port id="2" precision="FP16">
					<dim>2048</dim>
					<dim>2048</dim>
				</port>
			</output>
		</layer>
		<layer id="46" name="self.model.layers.0.self_attn.q_proj.weight/scale" type="Const" version="opset1">
			<data element_type="f16" shape="2048, 1" offset="69844784" size="4096" />
			<output>
				<port id="0" precision="FP16">
					<dim>2048</dim>
					<dim>1</dim>
				</port>
			</output>
		</layer>
		<layer id="47" name="self.model.layers.0.self_attn.q_proj.weight/fq_weights_1" type="Multiply" version="opset1">
			<data auto_broadcast="numpy" />
			<input>
				<port id="0" precision="FP16">
					<dim>2048</dim>
					<dim>2048</dim>
				</port>
				<port id="1" precision="FP16">
					<dim>2048</dim>
					<dim>1</dim>
				</port>
			</input>
			<output>
				<port id="2" precision="FP16">
					<dim>2048</dim>
					<dim>2048</dim>
				</port>
			</output>
		</layer>
		<layer id="48" name="self.model.layers.0.self_attn.q_proj.weight/fq_weights_1/convert" type="Convert" version="opset1">
			<data destination_type="f32" />
			<input>
				<port id="0" precision="FP16">
					<dim>2048</dim>
					<dim>2048</dim>
				</port>
			</input>
			<output>
				<port id="1" precision="FP32">
					<dim>2048</dim>
					<dim>2048</dim>
				</port>
			</output>
		</layer>
		<layer id="49" name="__module.model.layers.0.self_attn.q_proj/aten::linear/MatMul" type="MatMul" version="opset1">
			<data transpose_a="false" transpose_b="true" />
			<input>
				<port id="0" precision="FP32">
					<dim>-1</dim>
					<dim>-1</dim>
					<dim>2048</dim>
				</port>
				<port id="1" precision="FP32">
					<dim>2048</dim>
					<dim>2048</dim>
				</port>
			</input>
			<output>
				<port id="2" precision="FP32" names="335">
					<dim>-1</dim>
					<dim>-1</dim>
					<dim>2048</dim>
				</port>
			</output>
		</layer>
		<layer id="50" name="Constant_59261" type="Const" version="opset1">
			<data element_type="i64" shape="4" offset="69848880" size="32" />
			<output>
				<port id="0" precision="I64">
					<dim>4</dim>
				</port>
			</output>
		</layer>
		<layer id="51" name="__module.model.layers.0.self_attn/aten::view/Reshape" type="Reshape" version="opset1">
			<data special_zero="true" />
			<input>
				<port id="0" precision="FP32">
					<dim>-1</dim>
					<dim>-1</dim>
					<dim>2048</dim>
				</port>
				<port id="1" precision="I64">
					<dim>4</dim>
				</port>
			</input>
			<output>
				<port id="2" precision="FP32" names="337">
					<dim>-1</dim>
					<dim>-1</dim>
					<dim>32</dim>
					<dim>64</dim>
				</port>
			</output>
		</layer>
		<layer id="52" name="__module.model.layers.0.self_attn/aten::transpose/Constant" type="Const" version="opset1">
			<data element_type="i32" shape="4" offset="69848912" size="16" />
			<output>
				<port id="0" precision="I32">
					<dim>4</dim>
				</port>
			</output>
		</layer>
		<layer id="53" name="__module.model.layers.0.self_attn/aten::transpose/Transpose" type="Transpose" version="opset1">
			<input>
				<port id="0" precision="FP32">
					<dim>-1</dim>
					<dim>-1</dim>
					<dim>32</dim>
					<dim>64</dim>
				</port>
				<port id="1" precision="I32">
					<dim>4</dim>
				</port>
			</input>
			<output>
				<port id="2" precision="FP32" names="338,q.1">
					<dim>-1</dim>
					<dim>32</dim>
					<dim>-1</dim>
					<dim>64</dim>
				</port>
			</output>
		</layer>
		<layer id="54" name="__module.model.rotary_emb/aten::to/Convert" type="Const" version="opset1">
			<data element_type="f32" shape="1, 32, 1" offset="69848928" size="128" />
			<output>
				<port id="0" precision="FP32" names="288">
					<dim>1</dim>
					<dim>32</dim>
					<dim>1</dim>
				</port>
			</output>
		</layer>
		<layer id="55" name="ShapeOf_54087" type="ShapeOf" version="opset3">
			<data output_type="i64" />
			<input>
				<port id="0" precision="FP32">
					<dim>-1</dim>
					<dim>-1</dim>
					<dim>2048</dim>
				</port>
			</input>
			<output>
				<port id="1" precision="I64">
					<dim>3</dim>
				</port>
			</output>
		</layer>
		<layer id="56" name="Constant_54088" type="Const" version="opset1">
			<data element_type="i64" shape="1" offset="12" size="8" />
			<output>
				<port id="0" precision="I64">
					<dim>1</dim>
				</port>
			</output>
		</layer>
		<layer id="57" name="Constant_54089" type="Const" version="opset1">
			<data element_type="i64" shape="" offset="12" size="8" />
			<output>
				<port id="0" precision="I64" />
			</output>
		</layer>
		<layer id="58" name="Gather_54090" type="Gather" version="opset8">
			<data batch_dims="0" />
			<input>
				<port id="0" precision="I64">
					<dim>3</dim>
				</port>
				<port id="1" precision="I64">
					<dim>1</dim>
				</port>
				<port id="2" precision="I64" />
			</input>
			<output>
				<port id="3" precision="I64" names="1022,1038,1180,1196,1338,1354,1496,1512,1654,1670,1812,1828,1970,1986,2128,2144,2286,2302,2444,2460,259,2602,2618,2760,2776,289,2918,2934,3076,3092,3234,3250,3392,3408,3550,3566,3708,3724,390,406,548,564,706,722,864,880">
					<dim>1</dim>
				</port>
			</output>
		</layer>
		<layer id="59" name="Constant_47102" type="Const" version="opset1">
			<data element_type="i64" shape="1" offset="69849056" size="8" />
			<output>
				<port id="0" precision="I64">
					<dim>1</dim>
				</port>
			</output>
		</layer>
		<layer id="60" name="Constant_47104" type="Const" version="opset1">
			<data element_type="i64" shape="1" offset="69849056" size="8" />
			<output>
				<port id="0" precision="I64">
					<dim>1</dim>
				</port>
			</output>
		</layer>
		<layer id="61" name="__module.model.rotary_emb/prim::ListConstruct" type="Concat" version="opset1">
			<data axis="0" />
			<input>
				<port id="0" precision="I64">
					<dim>1</dim>
				</port>
				<port id="1" precision="I64">
					<dim>1</dim>
				</port>
				<port id="2" precision="I64">
					<dim>1</dim>
				</port>
			</input>
			<output>
				<port id="3" precision="I64">
					<dim>3</dim>
				</port>
			</output>
		</layer>
		<layer id="62" name="__module.model.rotary_emb/aten::expand/Broadcast" type="Broadcast" version="opset3">
			<data mode="bidirectional" />
			<input>
				<port id="0" precision="FP32">
					<dim>1</dim>
					<dim>32</dim>
					<dim>1</dim>
				</port>
				<port id="1" precision="I64">
					<dim>3</dim>
				</port>
			</input>
			<output>
				<port id="2" precision="FP32" names="291,296,inv_freq_expanded,inv_freq_expanded.1">
					<dim>-1</dim>
					<dim>32</dim>
					<dim>1</dim>
				</port>
			</output>
		</layer>
		<layer id="63" name="184" type="Const" version="opset1">
			<data element_type="i64" shape="" offset="69849056" size="8" />
			<output>
				<port id="0" precision="I64" names="184" />
			</output>
		</layer>
		<layer id="64" name="__module.model.rotary_emb/aten::unsqueeze/Unsqueeze_2" type="Unsqueeze" version="opset1">
			<input>
				<port id="0" precision="I64">
					<dim>-1</dim>
					<dim>-1</dim>
				</port>
				<port id="1" precision="I64" />
			</input>
			<output>
				<port id="2" precision="I64" names="293,294">
					<dim>-1</dim>
					<dim>1</dim>
					<dim>-1</dim>
				</port>
			</output>
		</layer>
		<layer id="65" name="__module.model.rotary_emb/aten::to/Convert_2" type="Convert" version="opset1">
			<data destination_type="f32" />
			<input>
				<port id="0" precision="I64">
					<dim>-1</dim>
					<dim>1</dim>
					<dim>-1</dim>
				</port>
			</input>
			<output>
				<port id="1" precision="FP32" names="295,297,position_ids_expanded,position_ids_expanded.1">
					<dim>-1</dim>
					<dim>1</dim>
					<dim>-1</dim>
				</port>
			</output>
		</layer>
		<layer id="66" name="__module.model.rotary_emb/aten::matmul/MatMul" type="MatMul" version="opset1">
			<data transpose_a="false" transpose_b="false" />
			<input>
				<port id="0" precision="FP32">
					<dim>-1</dim>
					<dim>32</dim>
					<dim>1</dim>
				</port>
				<port id="1" precision="FP32">
					<dim>-1</dim>
					<dim>1</dim>
					<dim>-1</dim>
				</port>
			</input>
			<output>
				<port id="2" precision="FP32" names="298">
					<dim>-1</dim>
					<dim>32</dim>
					<dim>-1</dim>
				</port>
			</output>
		</layer>
		<layer id="67" name="__module.model.rotary_emb/aten::transpose/Constant" type="Const" version="opset1">
			<data element_type="i32" shape="3" offset="69849064" size="12" />
			<output>
				<port id="0" precision="I32">
					<dim>3</dim>
				</port>
			</output>
		</layer>
		<layer id="68" name="__module.model.rotary_emb/aten::transpose/Transpose" type="Transpose" version="opset1">
			<input>
				<port id="0" precision="FP32">
					<dim>-1</dim>
					<dim>32</dim>
					<dim>-1</dim>
				</port>
				<port id="1" precision="I32">
					<dim>3</dim>
				</port>
			</input>
			<output>
				<port id="2" precision="FP32" names="299">
					<dim>-1</dim>
					<dim>-1</dim>
					<dim>32</dim>
				</port>
			</output>
		</layer>
		<layer id="69" name="__module.model.rotary_emb/aten::cat/Concat" type="Concat" version="opset1">
			<data axis="-1" />
			<input>
				<port id="0" precision="FP32">
					<dim>-1</dim>
					<dim>-1</dim>
					<dim>32</dim>
				</port>
				<port id="1" precision="FP32">
					<dim>-1</dim>
					<dim>-1</dim>
					<dim>32</dim>
				</port>
			</input>
			<output>
				<port id="2" precision="FP32" names="301,emb">
					<dim>-1</dim>
					<dim>-1</dim>
					<dim>64</dim>
				</port>
			</output>
		</layer>
		<layer id="70" name="__module.model.rotary_emb/aten::cos/Cos" type="Cos" version="opset1">
			<input>
				<port id="0" precision="FP32">
					<dim>-1</dim>
					<dim>-1</dim>
					<dim>64</dim>
				</port>
			</input>
			<output>
				<port id="1" precision="FP32" names="302,304,306,309,cos.1,cos.3,cos.5">
					<dim>-1</dim>
					<dim>-1</dim>
					<dim>64</dim>
				</port>
			</output>
		</layer>
		<layer id="71" name="__module.model.layers.0.self_attn/aten::unsqueeze/Unsqueeze" type="Unsqueeze" version="opset1">
			<input>
				<port id="0" precision="FP32">
					<dim>-1</dim>
					<dim>-1</dim>
					<dim>64</dim>
				</port>
				<port id="1" precision="I64" />
			</input>
			<output>
				<port id="2" precision="FP32" names="1142,1300,1458,1616,1774,1932,2090,2248,2406,2564,2722,2880,3038,3196,3354,349,3512,3670,510,668,826,984,cos,cos.11,cos.13,cos.15,cos.17,cos.19,cos.21,cos.23,cos.25,cos.27,cos.29,cos.31,cos.33,cos.35,cos.37,cos.39,cos.41,cos.43,cos.45,cos.47,cos.7,cos.9">
					<dim>-1</dim>
					<dim>1</dim>
					<dim>-1</dim>
					<dim>64</dim>
				</port>
			</output>
		</layer>
		<layer id="72" name="__module.model.layers.0.self_attn/aten::mul/Multiply" type="Multiply" version="opset1">
			<data auto_broadcast="numpy" />
			<input>
				<port id="0" precision="FP32">
					<dim>-1</dim>
					<dim>32</dim>
					<dim>-1</dim>
					<dim>64</dim>
				</port>
				<port id="1" precision="FP32">
					<dim>-1</dim>
					<dim>1</dim>
					<dim>-1</dim>
					<dim>64</dim>
				</port>
			</input>
			<output>
				<port id="2" precision="FP32" names="351">
					<dim>-1</dim>
					<dim>32</dim>
					<dim>-1</dim>
					<dim>64</dim>
				</port>
			</output>
		</layer>
		<layer id="73" name="Constant_910" type="Const" version="opset1">
			<data element_type="i64" shape="1" offset="69849076" size="8" />
			<output>
				<port id="0" precision="I64">
					<dim>1</dim>
				</port>
			</output>
		</layer>
		<layer id="74" name="Constant_912" type="Const" version="opset1">
			<data element_type="i64" shape="1" offset="69849084" size="8" />
			<output>
				<port id="0" precision="I64">
					<dim>1</dim>
				</port>
			</output>
		</layer>
		<layer id="75" name="Constant_914" type="Const" version="opset1">
			<data element_type="i64" shape="1" offset="69849056" size="8" />
			<output>
				<port id="0" precision="I64">
					<dim>1</dim>
				</port>
			</output>
		</layer>
		<layer id="76" name="Constant_866" type="Const" version="opset1">
			<data element_type="i64" shape="1" offset="69849092" size="8" />
			<output>
				<port id="0" precision="I64">
					<dim>1</dim>
				</port>
			</output>
		</layer>
		<layer id="77" name="__module.model.layers.0.self_attn/aten::slice/Slice" type="Slice" version="opset8">
			<input>
				<port id="0" precision="FP32">
					<dim>-1</dim>
					<dim>32</dim>
					<dim>-1</dim>
					<dim>64</dim>
				</port>
				<port id="1" precision="I64">
					<dim>1</dim>
				</port>
				<port id="2" precision="I64">
					<dim>1</dim>
				</port>
				<port id="3" precision="I64">
					<dim>1</dim>
				</port>
				<port id="4" precision="I64">
					<dim>1</dim>
				</port>
			</input>
			<output>
				<port id="5" precision="FP32" names="361,x2.1">
					<dim>-1</dim>
					<dim>32</dim>
					<dim>-1</dim>
					<dim>32</dim>
				</port>
			</output>
		</layer>
		<layer id="78" name="Constant_52581" type="Const" version="opset1">
			<data element_type="f32" shape="1, 1, 1, 1" offset="69849100" size="4" />
			<output>
				<port id="0" precision="FP32">
					<dim>1</dim>
					<dim>1</dim>
					<dim>1</dim>
					<dim>1</dim>
				</port>
			</output>
		</layer>
		<layer id="79" name="__module.model.layers.0.self_attn/aten::neg/Multiply" type="Multiply" version="opset1">
			<data auto_broadcast="numpy" />
			<input>
				<port id="0" precision="FP32">
					<dim>-1</dim>
					<dim>32</dim>
					<dim>-1</dim>
					<dim>32</dim>
				</port>
				<port id="1" precision="FP32">
					<dim>1</dim>
					<dim>1</dim>
					<dim>1</dim>
					<dim>1</dim>
				</port>
			</input>
			<output>
				<port id="2" precision="FP32" names="362">
					<dim>-1</dim>
					<dim>32</dim>
					<dim>-1</dim>
					<dim>32</dim>
				</port>
			</output>
		</layer>
		<layer id="80" name="Constant_807" type="Const" version="opset1">
			<data element_type="i64" shape="1" offset="12" size="8" />
			<output>
				<port id="0" precision="I64">
					<dim>1</dim>
				</port>
			</output>
		</layer>
		<layer id="81" name="Constant_851" type="Const" version="opset1">
			<data element_type="i64" shape="1" offset="69849076" size="8" />
			<output>
				<port id="0" precision="I64">
					<dim>1</dim>
				</port>
			</output>
		</layer>
		<layer id="82" name="Constant_853" type="Const" version="opset1">
			<data element_type="i64" shape="1" offset="69849056" size="8" />
			<output>
				<port id="0" precision="I64">
					<dim>1</dim>
				</port>
			</output>
		</layer>
		<layer id="83" name="Constant_805" type="Const" version="opset1">
			<data element_type="i64" shape="1" offset="69849092" size="8" />
			<output>
				<port id="0" precision="I64">
					<dim>1</dim>
				</port>
			</output>
		</layer>
		<layer id="84" name="__module.model.layers.0.self_attn/aten::slice/Slice_1" type="Slice" version="opset8">
			<input>
				<port id="0" precision="FP32">
					<dim>-1</dim>
					<dim>32</dim>
					<dim>-1</dim>
					<dim>64</dim>
				</port>
				<port id="1" precision="I64">
					<dim>1</dim>
				</port>
				<port id="2" precision="I64">
					<dim>1</dim>
				</port>
				<port id="3" precision="I64">
					<dim>1</dim>
				</port>
				<port id="4" precision="I64">
					<dim>1</dim>
				</port>
			</input>
			<output>
				<port id="5" precision="FP32" names="356">
					<dim>-1</dim>
					<dim>32</dim>
					<dim>-1</dim>
					<dim>32</dim>
				</port>
			</output>
		</layer>
		<layer id="85" name="__module.model.layers.0.self_attn/aten::cat/Concat" type="Concat" version="opset1">
			<data axis="-1" />
			<input>
				<port id="0" precision="FP32">
					<dim>-1</dim>
					<dim>32</dim>
					<dim>-1</dim>
					<dim>32</dim>
				</port>
				<port id="1" precision="FP32">
					<dim>-1</dim>
					<dim>32</dim>
					<dim>-1</dim>
					<dim>32</dim>
				</port>
			</input>
			<output>
				<port id="2" precision="FP32" names="364">
					<dim>-1</dim>
					<dim>32</dim>
					<dim>-1</dim>
					<dim>64</dim>
				</port>
			</output>
		</layer>
		<layer id="86" name="__module.model.rotary_emb/aten::sin/Sin" type="Sin" version="opset1">
			<input>
				<port id="0" precision="FP32">
					<dim>-1</dim>
					<dim>-1</dim>
					<dim>64</dim>
				</port>
			</input>
			<output>
				<port id="1" precision="FP32" names="303,305,307,310,sin.1,sin.3,sin.5">
					<dim>-1</dim>
					<dim>-1</dim>
					<dim>64</dim>
				</port>
			</output>
		</layer>
		<layer id="87" name="__module.model.layers.0.self_attn/aten::unsqueeze/Unsqueeze_1" type="Unsqueeze" version="opset1">
			<input>
				<port id="0" precision="FP32">
					<dim>-1</dim>
					<dim>-1</dim>
					<dim>64</dim>
				</port>
				<port id="1" precision="I64" />
			</input>
			<output>
				<port id="2" precision="FP32" names="1143,1301,1459,1617,1775,1933,2091,2249,2407,2565,2723,2881,3039,3197,3355,350,3513,3671,511,669,827,985,sin,sin.11,sin.13,sin.15,sin.17,sin.19,sin.21,sin.23,sin.25,sin.27,sin.29,sin.31,sin.33,sin.35,sin.37,sin.39,sin.41,sin.43,sin.45,sin.47,sin.7,sin.9">
					<dim>-1</dim>
					<dim>1</dim>
					<dim>-1</dim>
					<dim>64</dim>
				</port>
			</output>
		</layer>
		<layer id="88" name="__module.model.layers.0.self_attn/aten::mul/Multiply_1" type="Multiply" version="opset1">
			<data auto_broadcast="numpy" />
			<input>
				<port id="0" precision="FP32">
					<dim>-1</dim>
					<dim>32</dim>
					<dim>-1</dim>
					<dim>64</dim>
				</port>
				<port id="1" precision="FP32">
					<dim>-1</dim>
					<dim>1</dim>
					<dim>-1</dim>
					<dim>64</dim>
				</port>
			</input>
			<output>
				<port id="2" precision="FP32" names="365">
					<dim>-1</dim>
					<dim>32</dim>
					<dim>-1</dim>
					<dim>64</dim>
				</port>
			</output>
		</layer>
		<layer id="89" name="__module.model.layers.0.self_attn/aten::add/Add" type="Add" version="opset1">
			<data auto_broadcast="numpy" />
			<input>
				<port id="0" precision="FP32">
					<dim>-1</dim>
					<dim>32</dim>
					<dim>-1</dim>
					<dim>64</dim>
				</port>
				<port id="1" precision="FP32">
					<dim>-1</dim>
					<dim>32</dim>
					<dim>-1</dim>
					<dim>64</dim>
				</port>
			</input>
			<output>
				<port id="2" precision="FP32" names="366,query.1">
					<dim>-1</dim>
					<dim>32</dim>
					<dim>-1</dim>
					<dim>64</dim>
				</port>
			</output>
		</layer>
		<layer id="90" name="ReadValue_61119" type="ReadValue" version="opset6">
			<data variable_id="past_key_values.0.keypresent.0.key" variable_type="f32" variable_shape="?,4,?,64" />
			<input>
				<port id="0" precision="FP32">
					<dim>-1</dim>
					<dim>4</dim>
					<dim>0</dim>
					<dim>64</dim>
				</port>
			</input>
			<output>
				<port id="1" precision="FP32" names="past_key_values.0.key">
					<dim>-1</dim>
					<dim>4</dim>
					<dim>-1</dim>
					<dim>64</dim>
				</port>
			</output>
		</layer>
		<layer id="91" name="Constant_60614" type="Const" version="opset1">
			<data element_type="i32" shape="" offset="0" size="4" />
			<output>
				<port id="0" precision="I32" />
			</output>
		</layer>
		<layer id="92" name="Gather_60615" type="Gather" version="opset8">
			<data batch_dims="0" />
			<input>
				<port id="0" precision="FP32">
					<dim>-1</dim>
					<dim>4</dim>
					<dim>-1</dim>
					<dim>64</dim>
				</port>
				<port id="1" precision="I32">
					<dim>-1</dim>
				</port>
				<port id="2" precision="I32" />
			</input>
			<output>
				<port id="3" precision="FP32">
					<dim>-1</dim>
					<dim>4</dim>
					<dim>-1</dim>
					<dim>64</dim>
				</port>
			</output>
		</layer>
		<layer id="93" name="self.model.layers.0.self_attn.k_proj.weight" type="Const" version="opset1">
			<data element_type="u8" shape="256, 2048" offset="69849104" size="524288" />
			<output>
				<port id="0" precision="U8">
					<dim>256</dim>
					<dim>2048</dim>
				</port>
			</output>
		</layer>
		<layer id="94" name="Convert_551151" type="Convert" version="opset1">
			<data destination_type="f16" />
			<input>
				<port id="0" precision="U8">
					<dim>256</dim>
					<dim>2048</dim>
				</port>
			</input>
			<output>
				<port id="1" precision="FP16">
					<dim>256</dim>
					<dim>2048</dim>
				</port>
			</output>
		</layer>
		<layer id="95" name="self.model.layers.0.self_attn.k_proj.weight/zero_point" type="Const" version="opset1">
			<data element_type="u8" shape="256, 1" offset="70373392" size="256" />
			<output>
				<port id="0" precision="U8">
					<dim>256</dim>
					<dim>1</dim>
				</port>
			</output>
		</layer>
		<layer id="96" name="Convert_551154" type="Convert" version="opset1">
			<data destination_type="f16" />
			<input>
				<port id="0" precision="U8">
					<dim>256</dim>
					<dim>1</dim>
				</port>
			</input>
			<output>
				<port id="1" precision="FP16">
					<dim>256</dim>
					<dim>1</dim>
				</port>
			</output>
		</layer>
		<layer id="97" name="self.model.layers.0.self_attn.k_proj.weight/zero_point/subtract" type="Subtract" version="opset1">
			<data auto_broadcast="numpy" />
			<input>
				<port id="0" precision="FP16">
					<dim>256</dim>
					<dim>2048</dim>
				</port>
				<port id="1" precision="FP16">
					<dim>256</dim>
					<dim>1</dim>
				</port>
			</input>
			<output>
				<port id="2" precision="FP16">
					<dim>256</dim>
					<dim>2048</dim>
				</port>
			</output>
		</layer>
		<layer id="98" name="self.model.layers.0.self_attn.k_proj.weight/scale" type="Const" version="opset1">
			<data element_type="f16" shape="256, 1" offset="70373648" size="512" />
			<output>
				<port id="0" precision="FP16">
					<dim>256</dim>
					<dim>1</dim>
				</port>
			</output>
		</layer>
		<layer id="99" name="self.model.layers.0.self_attn.k_proj.weight/fq_weights_1" type="Multiply" version="opset1">
			<data auto_broadcast="numpy" />
			<input>
				<port id="0" precision="FP16">
					<dim>256</dim>
					<dim>2048</dim>
				</port>
				<port id="1" precision="FP16">
					<dim>256</dim>
					<dim>1</dim>
				</port>
			</input>
			<output>
				<port id="2" precision="FP16">
					<dim>256</dim>
					<dim>2048</dim>
				</port>
			</output>
		</layer>
		<layer id="100" name="self.model.layers.0.self_attn.k_proj.weight/fq_weights_1/convert" type="Convert" version="opset1">
			<data destination_type="f32" />
			<input>
				<port id="0" precision="FP16">
					<dim>256</dim>
					<dim>2048</dim>
				</port>
			</input>
			<output>
				<port id="1" precision="FP32">
					<dim>256</dim>
					<dim>2048</dim>
				</port>
			</output>
		</layer>
		<layer id="101" name="__module.model.layers.0.self_attn.k_proj/aten::linear/MatMul" type="MatMul" version="opset1">
			<data transpose_a="false" transpose_b="true" />
			<input>
				<port id="0" precision="FP32">
					<dim>-1</dim>
					<dim>-1</dim>
					<dim>2048</dim>
				</port>
				<port id="1" precision="FP32">
					<dim>256</dim>
					<dim>2048</dim>
				</port>
			</input>
			<output>
				<port id="2" precision="FP32" names="340">
					<dim>-1</dim>
					<dim>-1</dim>
					<dim>256</dim>
				</port>
			</output>
		</layer>
		<layer id="102" name="Constant_59262" type="Const" version="opset1">
			<data element_type="i64" shape="4" offset="70374160" size="32" />
			<output>
				<port id="0" precision="I64">
					<dim>4</dim>
				</port>
			</output>
		</layer>
		<layer id="103" name="__module.model.layers.0.self_attn/aten::view/Reshape_1" type="Reshape" version="opset1">
			<data special_zero="true" />
			<input>
				<port id="0" precision="FP32">
					<dim>-1</dim>
					<dim>-1</dim>
					<dim>256</dim>
				</port>
				<port id="1" precision="I64">
					<dim>4</dim>
				</port>
			</input>
			<output>
				<port id="2" precision="FP32" names="342">
					<dim>-1</dim>
					<dim>-1</dim>
					<dim>4</dim>
					<dim>64</dim>
				</port>
			</output>
		</layer>
		<layer id="104" name="__module.model.layers.0.self_attn/aten::transpose/Constant_1" type="Const" version="opset1">
			<data element_type="i32" shape="4" offset="69848912" size="16" />
			<output>
				<port id="0" precision="I32">
					<dim>4</dim>
				</port>
			</output>
		</layer>
		<layer id="105" name="__module.model.layers.0.self_attn/aten::transpose/Transpose_1" type="Transpose" version="opset1">
			<input>
				<port id="0" precision="FP32">
					<dim>-1</dim>
					<dim>-1</dim>
					<dim>4</dim>
					<dim>64</dim>
				</port>
				<port id="1" precision="I32">
					<dim>4</dim>
				</port>
			</input>
			<output>
				<port id="2" precision="FP32" names="343,k.1">
					<dim>-1</dim>
					<dim>4</dim>
					<dim>-1</dim>
					<dim>64</dim>
				</port>
			</output>
		</layer>
		<layer id="106" name="__module.model.layers.0.self_attn/aten::mul/Multiply_2" type="Multiply" version="opset1">
			<data auto_broadcast="numpy" />
			<input>
				<port id="0" precision="FP32">
					<dim>-1</dim>
					<dim>4</dim>
					<dim>-1</dim>
					<dim>64</dim>
				</port>
				<port id="1" precision="FP32">
					<dim>-1</dim>
					<dim>1</dim>
					<dim>-1</dim>
					<dim>64</dim>
				</port>
			</input>
			<output>
				<port id="2" precision="FP32" names="367">
					<dim>-1</dim>
					<dim>4</dim>
					<dim>-1</dim>
					<dim>64</dim>
				</port>
			</output>
		</layer>
		<layer id="107" name="Constant_1053" type="Const" version="opset1">
			<data element_type="i64" shape="1" offset="69849076" size="8" />
			<output>
				<port id="0" precision="I64">
					<dim>1</dim>
				</port>
			</output>
		</layer>
		<layer id="108" name="Constant_1055" type="Const" version="opset1">
			<data element_type="i64" shape="1" offset="69849084" size="8" />
			<output>
				<port id="0" precision="I64">
					<dim>1</dim>
				</port>
			</output>
		</layer>
		<layer id="109" name="Constant_1057" type="Const" version="opset1">
			<data element_type="i64" shape="1" offset="69849056" size="8" />
			<output>
				<port id="0" precision="I64">
					<dim>1</dim>
				</port>
			</output>
		</layer>
		<layer id="110" name="Constant_1009" type="Const" version="opset1">
			<data element_type="i64" shape="1" offset="69849092" size="8" />
			<output>
				<port id="0" precision="I64">
					<dim>1</dim>
				</port>
			</output>
		</layer>
		<layer id="111" name="__module.model.layers.0.self_attn/aten::slice/Slice_2" type="Slice" version="opset8">
			<input>
				<port id="0" precision="FP32">
					<dim>-1</dim>
					<dim>4</dim>
					<dim>-1</dim>
					<dim>64</dim>
				</port>
				<port id="1" precision="I64">
					<dim>1</dim>
				</port>
				<port id="2" precision="I64">
					<dim>1</dim>
				</port>
				<port id="3" precision="I64">
					<dim>1</dim>
				</port>
				<port id="4" precision="I64">
					<dim>1</dim>
				</port>
			</input>
			<output>
				<port id="5" precision="FP32" names="377,x2.3">
					<dim>-1</dim>
					<dim>4</dim>
					<dim>-1</dim>
					<dim>32</dim>
				</port>
			</output>
		</layer>
		<layer id="112" name="Constant_52582" type="Const" version="opset1">
			<data element_type="f32" shape="1, 1, 1, 1" offset="69849100" size="4" />
			<output>
				<port id="0" precision="FP32">
					<dim>1</dim>
					<dim>1</dim>
					<dim>1</dim>
					<dim>1</dim>
				</port>
			</output>
		</layer>
		<layer id="113" name="__module.model.layers.0.self_attn/aten::neg/Multiply_1" type="Multiply" version="opset1">
			<data auto_broadcast="numpy" />
			<input>
				<port id="0" precision="FP32">
					<dim>-1</dim>
					<dim>4</dim>
					<dim>-1</dim>
					<dim>32</dim>
				</port>
				<port id="1" precision="FP32">
					<dim>1</dim>
					<dim>1</dim>
					<dim>1</dim>
					<dim>1</dim>
				</port>
			</input>
			<output>
				<port id="2" precision="FP32" names="378">
					<dim>-1</dim>
					<dim>4</dim>
					<dim>-1</dim>
					<dim>32</dim>
				</port>
			</output>
		</layer>
		<layer id="114" name="Constant_950" type="Const" version="opset1">
			<data element_type="i64" shape="1" offset="12" size="8" />
			<output>
				<port id="0" precision="I64">
					<dim>1</dim>
				</port>
			</output>
		</layer>
		<layer id="115" name="Constant_994" type="Const" version="opset1">
			<data element_type="i64" shape="1" offset="69849076" size="8" />
			<output>
				<port id="0" precision="I64">
					<dim>1</dim>
				</port>
			</output>
		</layer>
		<layer id="116" name="Constant_996" type="Const" version="opset1">
			<data element_type="i64" shape="1" offset="69849056" size="8" />
			<output>
				<port id="0" precision="I64">
					<dim>1</dim>
				</port>
			</output>
		</layer>
		<layer id="117" name="Constant_948" type="Const" version="opset1">
			<data element_type="i64" shape="1" offset="69849092" size="8" />
			<output>
				<port id="0" precision="I64">
					<dim>1</dim>
				</port>
			</output>
		</layer>
		<layer id="118" name="__module.model.layers.0.self_attn/aten::slice/Slice_3" type="Slice" version="opset8">
			<input>
				<port id="0" precision="FP32">
					<dim>-1</dim>
					<dim>4</dim>
					<dim>-1</dim>
					<dim>64</dim>
				</port>
				<port id="1" precision="I64">
					<dim>1</dim>
				</port>
				<port id="2" precision="I64">
					<dim>1</dim>
				</port>
				<port id="3" precision="I64">
					<dim>1</dim>
				</port>
				<port id="4" precision="I64">
					<dim>1</dim>
				</port>
			</input>
			<output>
				<port id="5" precision="FP32" names="372">
					<dim>-1</dim>
					<dim>4</dim>
					<dim>-1</dim>
					<dim>32</dim>
				</port>
			</output>
		</layer>
		<layer id="119" name="__module.model.layers.0.self_attn/aten::cat/Concat_1" type="Concat" version="opset1">
			<data axis="-1" />
			<input>
				<port id="0" precision="FP32">
					<dim>-1</dim>
					<dim>4</dim>
					<dim>-1</dim>
					<dim>32</dim>
				</port>
				<port id="1" precision="FP32">
					<dim>-1</dim>
					<dim>4</dim>
					<dim>-1</dim>
					<dim>32</dim>
				</port>
			</input>
			<output>
				<port id="2" precision="FP32" names="380">
					<dim>-1</dim>
					<dim>4</dim>
					<dim>-1</dim>
					<dim>64</dim>
				</port>
			</output>
		</layer>
		<layer id="120" name="__module.model.layers.0.self_attn/aten::mul/Multiply_3" type="Multiply" version="opset1">
			<data auto_broadcast="numpy" />
			<input>
				<port id="0" precision="FP32">
					<dim>-1</dim>
					<dim>4</dim>
					<dim>-1</dim>
					<dim>64</dim>
				</port>
				<port id="1" precision="FP32">
					<dim>-1</dim>
					<dim>1</dim>
					<dim>-1</dim>
					<dim>64</dim>
				</port>
			</input>
			<output>
				<port id="2" precision="FP32" names="381">
					<dim>-1</dim>
					<dim>4</dim>
					<dim>-1</dim>
					<dim>64</dim>
				</port>
			</output>
		</layer>
		<layer id="121" name="__module.model.layers.0.self_attn/aten::add/Add_1" type="Add" version="opset1">
			<data auto_broadcast="numpy" />
			<input>
				<port id="0" precision="FP32">
					<dim>-1</dim>
					<dim>4</dim>
					<dim>-1</dim>
					<dim>64</dim>
				</port>
				<port id="1" precision="FP32">
					<dim>-1</dim>
					<dim>4</dim>
					<dim>-1</dim>
					<dim>64</dim>
				</port>
			</input>
			<output>
				<port id="2" precision="FP32" names="382,key_states">
					<dim>-1</dim>
					<dim>4</dim>
					<dim>-1</dim>
					<dim>64</dim>
				</port>
			</output>
		</layer>
		<layer id="122" name="__module.model.layers.0.self_attn/aten::cat/Concat_2" type="Concat" version="opset1">
			<data axis="-2" />
			<input>
				<port id="0" precision="FP32">
					<dim>-1</dim>
					<dim>4</dim>
					<dim>-1</dim>
					<dim>64</dim>
				</port>
				<port id="1" precision="FP32">
					<dim>-1</dim>
					<dim>4</dim>
					<dim>-1</dim>
					<dim>64</dim>
				</port>
			</input>
			<output>
				<port id="2" precision="FP32" names="395,396,hidden_states.9">
					<dim>-1</dim>
					<dim>4</dim>
					<dim>-1</dim>
					<dim>64</dim>
				</port>
			</output>
		</layer>
		<layer id="123" name="185" type="Const" version="opset1">
			<data element_type="i64" shape="" offset="70374192" size="8" />
			<output>
				<port id="0" precision="I64" names="185" />
			</output>
		</layer>
		<layer id="124" name="__module.model.layers.0.self_attn/aten::unsqueeze/Unsqueeze_2" type="Unsqueeze" version="opset1">
			<input>
				<port id="0" precision="FP32">
					<dim>-1</dim>
					<dim>4</dim>
					<dim>-1</dim>
					<dim>64</dim>
				</port>
				<port id="1" precision="I64" />
			</input>
			<output>
				<port id="2" precision="FP32" names="397,398,399">
					<dim>-1</dim>
					<dim>4</dim>
					<dim>1</dim>
					<dim>-1</dim>
					<dim>64</dim>
				</port>
			</output>
		</layer>
		<layer id="125" name="__module.model.layers.0.self_attn/aten::size/ShapeOf_2" type="ShapeOf" version="opset3">
			<data output_type="i64" />
			<input>
				<port id="0" precision="FP32">
					<dim>-1</dim>
					<dim>4</dim>
					<dim>-1</dim>
					<dim>64</dim>
				</port>
			</input>
			<output>
				<port id="1" precision="I64">
					<dim>4</dim>
				</port>
			</output>
		</layer>
		<layer id="126" name="Constant_48738" type="Const" version="opset1">
			<data element_type="i64" shape="2" offset="70374200" size="16" />
			<output>
				<port id="0" precision="I64">
					<dim>2</dim>
				</port>
			</output>
		</layer>
		<layer id="127" name="Constant_48739" type="Const" version="opset1">
			<data element_type="i64" shape="" offset="12" size="8" />
			<output>
				<port id="0" precision="I64" />
			</output>
		</layer>
		<layer id="128" name="Gather_48740" type="Gather" version="opset8">
			<data batch_dims="0" />
			<input>
				<port id="0" precision="I64">
					<dim>4</dim>
				</port>
				<port id="1" precision="I64">
					<dim>2</dim>
				</port>
				<port id="2" precision="I64" />
			</input>
			<output>
				<port id="3" precision="I64">
					<dim>2</dim>
				</port>
			</output>
		</layer>
		<layer id="129" name="Constant_47111" type="Const" version="opset1">
			<data element_type="i64" shape="1" offset="70374216" size="8" />
			<output>
				<port id="0" precision="I64">
					<dim>1</dim>
				</port>
			</output>
		</layer>
		<layer id="130" name="ShapeOf_54129" type="ShapeOf" version="opset3">
			<data output_type="i64" />
			<input>
				<port id="0" precision="FP32">
					<dim>-1</dim>
					<dim>4</dim>
					<dim>-1</dim>
					<dim>64</dim>
				</port>
			</input>
			<output>
				<port id="1" precision="I64">
					<dim>4</dim>
				</port>
			</output>
		</layer>
		<layer id="131" name="Constant_54130" type="Const" version="opset1">
			<data element_type="i64" shape="" offset="70374192" size="8" />
			<output>
				<port id="0" precision="I64" />
			</output>
		</layer>
		<layer id="132" name="Constant_54131" type="Const" version="opset1">
			<data element_type="i64" shape="" offset="12" size="8" />
			<output>
				<port id="0" precision="I64" />
			</output>
		</layer>
		<layer id="133" name="Gather_54132" type="Gather" version="opset8">
			<data batch_dims="0" />
			<input>
				<port id="0" precision="I64">
					<dim>4</dim>
				</port>
				<port id="1" precision="I64" />
				<port id="2" precision="I64" />
			</input>
			<output>
				<port id="3" precision="I64" names="237" />
			</output>
		</layer>
		<layer id="134" name="Constant_751335" type="Const" version="opset1">
			<data element_type="i64" shape="1" offset="65648420" size="8" />
			<output>
				<port id="0" precision="I64">
					<dim>1</dim>
				</port>
			</output>
		</layer>
		<layer id="135" name="Reshape_54144" type="Reshape" version="opset1">
			<data special_zero="false" />
			<input>
				<port id="0" precision="I64" />
				<port id="1" precision="I64">
					<dim>1</dim>
				</port>
			</input>
			<output>
				<port id="2" precision="I64">
					<dim>1</dim>
				</port>
			</output>
		</layer>
		<layer id="136" name="Constant_54098" type="Const" version="opset1">
			<data element_type="i64" shape="" offset="69849056" size="8" />
			<output>
				<port id="0" precision="I64" />
			</output>
		</layer>
		<layer id="137" name="Constant_54099" type="Const" version="opset1">
			<data element_type="i64" shape="" offset="12" size="8" />
			<output>
				<port id="0" precision="I64" />
			</output>
		</layer>
		<layer id="138" name="Gather_54100" type="Gather" version="opset8">
			<data batch_dims="0" />
			<input>
				<port id="0" precision="I64">
					<dim>3</dim>
				</port>
				<port id="1" precision="I64" />
				<port id="2" precision="I64" />
			</input>
			<output>
				<port id="3" precision="I64" names="239,244" />
			</output>
		</layer>
		<layer id="139" name="Constant_751336" type="Const" version="opset1">
			<data element_type="i64" shape="1" offset="65648420" size="8" />
			<output>
				<port id="0" precision="I64">
					<dim>1</dim>
				</port>
			</output>
		</layer>
		<layer id="140" name="Reshape_54146" type="Reshape" version="opset1">
			<data special_zero="false" />
			<input>
				<port id="0" precision="I64" />
				<port id="1" precision="I64">
					<dim>1</dim>
				</port>
			</input>
			<output>
				<port id="2" precision="I64">
					<dim>1</dim>
				</port>
			</output>
		</layer>
		<layer id="141" name="Add_54147" type="Add" version="opset1">
			<data auto_broadcast="numpy" />
			<input>
				<port id="0" precision="I64">
					<dim>1</dim>
				</port>
				<port id="1" precision="I64">
					<dim>1</dim>
				</port>
			</input>
			<output>
				<port id="2" precision="I64" names="1025,1054,1183,1212,1341,1370,1499,1528,1657,1686,1815,1844,1973,2002,2131,2160,2289,2318,2447,2476,2605,2634,2763,2792,2921,2950,3079,3108,3237,3266,3395,3424,3553,3582,3711,3740,393,422,551,580,709,738,867,896">
					<dim>1</dim>
				</port>
			</output>
		</layer>
		<layer id="142" name="Constant_47114" type="Const" version="opset1">
			<data element_type="i64" shape="1" offset="20" size="8" />
			<output>
				<port id="0" precision="I64">
					<dim>1</dim>
				</port>
			</output>
		</layer>
		<layer id="143" name="__module.model.layers.0.self_attn/prim::ListConstruct_2" type="Concat" version="opset1">
			<data axis="0" />
			<input>
				<port id="0" precision="I64">
					<dim>2</dim>
				</port>
				<port id="1" precision="I64">
					<dim>1</dim>
				</port>
				<port id="2" precision="I64">
					<dim>1</dim>
				</port>
				<port id="3" precision="I64">
					<dim>1</dim>
				</port>
			</input>
			<output>
				<port id="4" precision="I64">
					<dim>5</dim>
				</port>
			</output>
		</layer>
		<layer id="144" name="__module.model.layers.0.self_attn/aten::expand/Broadcast" type="Broadcast" version="opset3">
			<data mode="bidirectional" />
			<input>
				<port id="0" precision="FP32">
					<dim>-1</dim>
					<dim>4</dim>
					<dim>1</dim>
					<dim>-1</dim>
					<dim>64</dim>
				</port>
				<port id="1" precision="I64">
					<dim>5</dim>
				</port>
			</input>
			<output>
				<port id="2" precision="FP32" names="401,hidden_states.11">
					<dim>-1</dim>
					<dim>4</dim>
					<dim>8</dim>
					<dim>-1</dim>
					<dim>64</dim>
				</port>
			</output>
		</layer>
		<layer id="145" name="Constant_59263" type="Const" version="opset1">
			<data element_type="i64" shape="4" offset="70374224" size="32" />
			<output>
				<port id="0" precision="I64">
					<dim>4</dim>
				</port>
			</output>
		</layer>
		<layer id="146" name="__module.model.layers.0.self_attn/aten::reshape/Reshape" type="Reshape" version="opset1">
			<data special_zero="true" />
			<input>
				<port id="0" precision="FP32">
					<dim>-1</dim>
					<dim>4</dim>
					<dim>8</dim>
					<dim>-1</dim>
					<dim>64</dim>
				</port>
				<port id="1" precision="I64">
					<dim>4</dim>
				</port>
			</input>
			<output>
				<port id="2" precision="FP32" names="405,key.1">
					<dim>-1</dim>
					<dim>32</dim>
					<dim>-1</dim>
					<dim>64</dim>
				</port>
			</output>
		</layer>
		<layer id="147" name="ReadValue_61121" type="ReadValue" version="opset6">
			<data variable_id="past_key_values.0.valuepresent.0.value" variable_type="f32" variable_shape="?,4,?,64" />
			<input>
				<port id="0" precision="FP32">
					<dim>-1</dim>
					<dim>4</dim>
					<dim>0</dim>
					<dim>64</dim>
				</port>
			</input>
			<output>
				<port id="1" precision="FP32" names="past_key_values.0.value">
					<dim>-1</dim>
					<dim>4</dim>
					<dim>-1</dim>
					<dim>64</dim>
				</port>
			</output>
		</layer>
		<layer id="148" name="Constant_60617" type="Const" version="opset1">
			<data element_type="i32" shape="" offset="0" size="4" />
			<output>
				<port id="0" precision="I32" />
			</output>
		</layer>
		<layer id="149" name="Gather_60618" type="Gather" version="opset8">
			<data batch_dims="0" />
			<input>
				<port id="0" precision="FP32">
					<dim>-1</dim>
					<dim>4</dim>
					<dim>-1</dim>
					<dim>64</dim>
				</port>
				<port id="1" precision="I32">
					<dim>-1</dim>
				</port>
				<port id="2" precision="I32" />
			</input>
			<output>
				<port id="3" precision="FP32">
					<dim>-1</dim>
					<dim>4</dim>
					<dim>-1</dim>
					<dim>64</dim>
				</port>
			</output>
		</layer>
		<layer id="150" name="self.model.layers.0.self_attn.v_proj.weight" type="Const" version="opset1">
			<data element_type="u8" shape="256, 2048" offset="70374256" size="524288" />
			<output>
				<port id="0" precision="U8">
					<dim>256</dim>
					<dim>2048</dim>
				</port>
			</output>
		</layer>
		<layer id="151" name="Convert_555389" type="Convert" version="opset1">
			<data destination_type="f16" />
			<input>
				<port id="0" precision="U8">
					<dim>256</dim>
					<dim>2048</dim>
				</port>
			</input>
			<output>
				<port id="1" precision="FP16">
					<dim>256</dim>
					<dim>2048</dim>
				</port>
			</output>
		</layer>
		<layer id="152" name="self.model.layers.0.self_attn.v_proj.weight/zero_point" type="Const" version="opset1">
			<data element_type="u8" shape="256, 1" offset="70898544" size="256" />
			<output>
				<port id="0" precision="U8">
					<dim>256</dim>
					<dim>1</dim>
				</port>
			</output>
		</layer>
		<layer id="153" name="Convert_555392" type="Convert" version="opset1">
			<data destination_type="f16" />
			<input>
				<port id="0" precision="U8">
					<dim>256</dim>
					<dim>1</dim>
				</port>
			</input>
			<output>
				<port id="1" precision="FP16">
					<dim>256</dim>
					<dim>1</dim>
				</port>
			</output>
		</layer>
		<layer id="154" name="self.model.layers.0.self_attn.v_proj.weight/zero_point/subtract" type="Subtract" version="opset1">
			<data auto_broadcast="numpy" />
			<input>
				<port id="0" precision="FP16">
					<dim>256</dim>
					<dim>2048</dim>
				</port>
				<port id="1" precision="FP16">
					<dim>256</dim>
					<dim>1</dim>
				</port>
			</input>
			<output>
				<port id="2" precision="FP16">
					<dim>256</dim>
					<dim>2048</dim>
				</port>
			</output>
		</layer>
		<layer id="155" name="self.model.layers.0.self_attn.v_proj.weight/scale" type="Const" version="opset1">
			<data element_type="f16" shape="256, 1" offset="70898800" size="512" />
			<output>
				<port id="0" precision="FP16">
					<dim>256</dim>
					<dim>1</dim>
				</port>
			</output>
		</layer>
		<layer id="156" name="self.model.layers.0.self_attn.v_proj.weight/fq_weights_1" type="Multiply" version="opset1">
			<data auto_broadcast="numpy" />
			<input>
				<port id="0" precision="FP16">
					<dim>256</dim>
					<dim>2048</dim>
				</port>
				<port id="1" precision="FP16">
					<dim>256</dim>
					<dim>1</dim>
				</port>
			</input>
			<output>
				<port id="2" precision="FP16">
					<dim>256</dim>
					<dim>2048</dim>
				</port>
			</output>
		</layer>
		<layer id="157" name="self.model.layers.0.self_attn.v_proj.weight/fq_weights_1/convert" type="Convert" version="opset1">
			<data destination_type="f32" />
			<input>
				<port id="0" precision="FP16">
					<dim>256</dim>
					<dim>2048</dim>
				</port>
			</input>
			<output>
				<port id="1" precision="FP32">
					<dim>256</dim>
					<dim>2048</dim>
				</port>
			</output>
		</layer>
		<layer id="158" name="__module.model.layers.0.self_attn.v_proj/aten::linear/MatMul" type="MatMul" version="opset1">
			<data transpose_a="false" transpose_b="true" />
			<input>
				<port id="0" precision="FP32">
					<dim>-1</dim>
					<dim>-1</dim>
					<dim>2048</dim>
				</port>
				<port id="1" precision="FP32">
					<dim>256</dim>
					<dim>2048</dim>
				</port>
			</input>
			<output>
				<port id="2" precision="FP32" names="345">
					<dim>-1</dim>
					<dim>-1</dim>
					<dim>256</dim>
				</port>
			</output>
		</layer>
		<layer id="159" name="Constant_59264" type="Const" version="opset1">
			<data element_type="i64" shape="4" offset="70374160" size="32" />
			<output>
				<port id="0" precision="I64">
					<dim>4</dim>
				</port>
			</output>
		</layer>
		<layer id="160" name="__module.model.layers.0.self_attn/aten::view/Reshape_2" type="Reshape" version="opset1">
			<data special_zero="true" />
			<input>
				<port id="0" precision="FP32">
					<dim>-1</dim>
					<dim>-1</dim>
					<dim>256</dim>
				</port>
				<port id="1" precision="I64">
					<dim>4</dim>
				</port>
			</input>
			<output>
				<port id="2" precision="FP32" names="347">
					<dim>-1</dim>
					<dim>-1</dim>
					<dim>4</dim>
					<dim>64</dim>
				</port>
			</output>
		</layer>
		<layer id="161" name="__module.model.layers.0.self_attn/aten::transpose/Constant_2" type="Const" version="opset1">
			<data element_type="i32" shape="4" offset="69848912" size="16" />
			<output>
				<port id="0" precision="I32">
					<dim>4</dim>
				</port>
			</output>
		</layer>
		<layer id="162" name="__module.model.layers.0.self_attn/aten::transpose/Transpose_2" type="Transpose" version="opset1">
			<input>
				<port id="0" precision="FP32">
					<dim>-1</dim>
					<dim>-1</dim>
					<dim>4</dim>
					<dim>64</dim>
				</port>
				<port id="1" precision="I32">
					<dim>4</dim>
				</port>
			</input>
			<output>
				<port id="2" precision="FP32" names="348">
					<dim>-1</dim>
					<dim>4</dim>
					<dim>-1</dim>
					<dim>64</dim>
				</port>
			</output>
		</layer>
		<layer id="163" name="__module.model.layers.0.self_attn/aten::cat/Concat_3" type="Concat" version="opset1">
			<data axis="-2" />
			<input>
				<port id="0" precision="FP32">
					<dim>-1</dim>
					<dim>4</dim>
					<dim>-1</dim>
					<dim>64</dim>
				</port>
				<port id="1" precision="FP32">
					<dim>-1</dim>
					<dim>4</dim>
					<dim>-1</dim>
					<dim>64</dim>
				</port>
			</input>
			<output>
				<port id="2" precision="FP32" names="411,412,hidden_states.13">
					<dim>-1</dim>
					<dim>4</dim>
					<dim>-1</dim>
					<dim>64</dim>
				</port>
			</output>
		</layer>
		<layer id="164" name="__module.model.layers.0.self_attn/aten::unsqueeze/Unsqueeze_3" type="Unsqueeze" version="opset1">
			<input>
				<port id="0" precision="FP32">
					<dim>-1</dim>
					<dim>4</dim>
					<dim>-1</dim>
					<dim>64</dim>
				</port>
				<port id="1" precision="I64" />
			</input>
			<output>
				<port id="2" precision="FP32" names="413,414,415">
					<dim>-1</dim>
					<dim>4</dim>
					<dim>1</dim>
					<dim>-1</dim>
					<dim>64</dim>
				</port>
			</output>
		</layer>
		<layer id="165" name="__module.model.layers.0.self_attn/aten::expand/Broadcast_1" type="Broadcast" version="opset3">
			<data mode="bidirectional" />
			<input>
				<port id="0" precision="FP32">
					<dim>-1</dim>
					<dim>4</dim>
					<dim>1</dim>
					<dim>-1</dim>
					<dim>64</dim>
				</port>
				<port id="1" precision="I64">
					<dim>5</dim>
				</port>
			</input>
			<output>
				<port id="2" precision="FP32" names="417,hidden_states.15">
					<dim>-1</dim>
					<dim>4</dim>
					<dim>8</dim>
					<dim>-1</dim>
					<dim>64</dim>
				</port>
			</output>
		</layer>
		<layer id="166" name="Constant_59265" type="Const" version="opset1">
			<data element_type="i64" shape="4" offset="70374224" size="32" />
			<output>
				<port id="0" precision="I64">
					<dim>4</dim>
				</port>
			</output>
		</layer>
		<layer id="167" name="__module.model.layers.0.self_attn/aten::reshape/Reshape_1" type="Reshape" version="opset1">
			<data special_zero="true" />
			<input>
				<port id="0" precision="FP32">
					<dim>-1</dim>
					<dim>4</dim>
					<dim>8</dim>
					<dim>-1</dim>
					<dim>64</dim>
				</port>
				<port id="1" precision="I64">
					<dim>4</dim>
				</port>
			</input>
			<output>
				<port id="2" precision="FP32" names="421,value.1">
					<dim>-1</dim>
					<dim>32</dim>
					<dim>-1</dim>
					<dim>64</dim>
				</port>
			</output>
		</layer>
		<layer id="168" name="__module.model/aten::triu/Constant" type="Const" version="opset1">
			<data element_type="i32" shape="" offset="0" size="4" />
			<output>
				<port id="0" precision="I32" />
			</output>
		</layer>
		<layer id="169" name="Multiply_49446" type="Const" version="opset1">
			<data element_type="f32" shape="" offset="70899312" size="4" />
			<output>
				<port id="0" precision="FP32" />
			</output>
		</layer>
		<layer id="170" name="Constant_49451" type="Const" version="opset1">
			<data element_type="i64" shape="2" offset="70899316" size="16" />
			<output>
				<port id="0" precision="I64">
					<dim>2</dim>
				</port>
			</output>
		</layer>
		<layer id="171" name="ShapeOf_54105" type="ShapeOf" version="opset3">
			<data output_type="i64" />
			<input>
				<port id="0" precision="I64">
					<dim>-1</dim>
					<dim>-1</dim>
				</port>
			</input>
			<output>
				<port id="1" precision="I64">
					<dim>2</dim>
				</port>
			</output>
		</layer>
		<layer id="172" name="Constant_54106" type="Const" version="opset1">
			<data element_type="i64" shape="" offset="69849056" size="8" />
			<output>
				<port id="0" precision="I64" />
			</output>
		</layer>
		<layer id="173" name="Constant_54107" type="Const" version="opset1">
			<data element_type="i64" shape="" offset="12" size="8" />
			<output>
				<port id="0" precision="I64" />
			</output>
		</layer>
		<layer id="174" name="Gather_54108" type="Gather" version="opset8">
			<data batch_dims="0" />
			<input>
				<port id="0" precision="I64">
					<dim>2</dim>
				</port>
				<port id="1" precision="I64" />
				<port id="2" precision="I64" />
			</input>
			<output>
				<port id="3" precision="I64" names="245,263" />
			</output>
		</layer>
		<layer id="175" name="Constant_751337" type="Const" version="opset1">
			<data element_type="i64" shape="1" offset="65648420" size="8" />
			<output>
				<port id="0" precision="I64">
					<dim>1</dim>
				</port>
			</output>
		</layer>
		<layer id="176" name="Reshape_54110" type="Reshape" version="opset1">
			<data special_zero="false" />
			<input>
				<port id="0" precision="I64" />
				<port id="1" precision="I64">
					<dim>1</dim>
				</port>
			</input>
			<output>
				<port id="2" precision="I64">
					<dim>1</dim>
				</port>
			</output>
		</layer>
		<layer id="177" name="__module.model/prim::ListConstruct" type="Concat" version="opset1">
			<data axis="0" />
			<input>
				<port id="0" precision="I64">
					<dim>1</dim>
				</port>
				<port id="1" precision="I64">
					<dim>1</dim>
				</port>
			</input>
			<output>
				<port id="2" precision="I64">
					<dim>2</dim>
				</port>
			</output>
		</layer>
		<layer id="178" name="Maximum_49452" type="Maximum" version="opset1">
			<data auto_broadcast="numpy" />
			<input>
				<port id="0" precision="I64">
					<dim>2</dim>
				</port>
				<port id="1" precision="I64">
					<dim>2</dim>
				</port>
			</input>
			<output>
				<port id="2" precision="I64">
					<dim>2</dim>
				</port>
			</output>
		</layer>
		<layer id="179" name="__module.model/aten::mul/Multiply" type="Broadcast" version="opset3">
			<data mode="numpy" />
			<input>
				<port id="0" precision="FP32" />
				<port id="1" precision="I64">
					<dim>2</dim>
				</port>
			</input>
			<output>
				<port id="2" precision="FP32" names="248">
					<dim>-1</dim>
					<dim>-1</dim>
				</port>
			</output>
		</layer>
		<layer id="180" name="ShapeOf_54115" type="ShapeOf" version="opset3">
			<data output_type="i32" />
			<input>
				<port id="0" precision="FP32">
					<dim>-1</dim>
					<dim>-1</dim>
				</port>
			</input>
			<output>
				<port id="1" precision="I32">
					<dim>2</dim>
				</port>
			</output>
		</layer>
		<layer id="181" name="Constant_54116" type="Const" version="opset1">
			<data element_type="i64" shape="" offset="69849056" size="8" />
			<output>
				<port id="0" precision="I64" />
			</output>
		</layer>
		<layer id="182" name="Constant_54117" type="Const" version="opset1">
			<data element_type="i64" shape="" offset="12" size="8" />
			<output>
				<port id="0" precision="I64" />
			</output>
		</layer>
		<layer id="183" name="Gather_54118" type="Gather" version="opset8">
			<data batch_dims="0" />
			<input>
				<port id="0" precision="I32">
					<dim>2</dim>
				</port>
				<port id="1" precision="I64" />
				<port id="2" precision="I64" />
			</input>
			<output>
				<port id="3" precision="I32" />
			</output>
		</layer>
		<layer id="184" name="__module.model/aten::triu/Constant_2" type="Const" version="opset1">
			<data element_type="i32" shape="" offset="70899332" size="4" />
			<output>
				<port id="0" precision="I32" />
			</output>
		</layer>
		<layer id="185" name="__module.model/aten::triu/Range" type="Range" version="opset4">
			<data output_type="i32" />
			<input>
				<port id="0" precision="I32" />
				<port id="1" precision="I32" />
				<port id="2" precision="I32" />
			</input>
			<output>
				<port id="3" precision="I32">
					<dim>-1</dim>
				</port>
			</output>
		</layer>
		<layer id="186" name="__module.model/aten::triu/Unsqueeze" type="Unsqueeze" version="opset1">
			<input>
				<port id="0" precision="I32">
					<dim>-1</dim>
				</port>
				<port id="1" precision="I32" />
			</input>
			<output>
				<port id="2" precision="I32">
					<dim>1</dim>
					<dim>-1</dim>
				</port>
			</output>
		</layer>
		<layer id="187" name="__module.model/aten::triu/Convert" type="Const" version="opset1">
			<data element_type="i32" shape="" offset="70899332" size="4" />
			<output>
				<port id="0" precision="I32" />
			</output>
		</layer>
		<layer id="188" name="Constant_54122" type="Const" version="opset1">
			<data element_type="i64" shape="" offset="12" size="8" />
			<output>
				<port id="0" precision="I64" />
			</output>
		</layer>
		<layer id="189" name="Constant_54123" type="Const" version="opset1">
			<data element_type="i64" shape="" offset="12" size="8" />
			<output>
				<port id="0" precision="I64" />
			</output>
		</layer>
		<layer id="190" name="Gather_54124" type="Gather" version="opset8">
			<data batch_dims="0" />
			<input>
				<port id="0" precision="I32">
					<dim>2</dim>
				</port>
				<port id="1" precision="I64" />
				<port id="2" precision="I64" />
			</input>
			<output>
				<port id="3" precision="I32" />
			</output>
		</layer>
		<layer id="191" name="__module.model/aten::triu/Add" type="Add" version="opset1">
			<data auto_broadcast="numpy" />
			<input>
				<port id="0" precision="I32" />
				<port id="1" precision="I32" />
			</input>
			<output>
				<port id="2" precision="I32" />
			</output>
		</layer>
		<layer id="192" name="__module.model/aten::triu/Range_1" type="Range" version="opset4">
			<data output_type="i32" />
			<input>
				<port id="0" precision="I32" />
				<port id="1" precision="I32" />
				<port id="2" precision="I32" />
			</input>
			<output>
				<port id="3" precision="I32">
					<dim>-1</dim>
				</port>
			</output>
		</layer>
		<layer id="193" name="__module.model/aten::triu/Unsqueeze_1" type="Unsqueeze" version="opset1">
			<input>
				<port id="0" precision="I32">
					<dim>-1</dim>
				</port>
				<port id="1" precision="I32" />
			</input>
			<output>
				<port id="2" precision="I32">
					<dim>-1</dim>
					<dim>1</dim>
				</port>
			</output>
		</layer>
		<layer id="194" name="__module.model/aten::triu/GreaterEqual" type="GreaterEqual" version="opset1">
			<data auto_broadcast="numpy" />
			<input>
				<port id="0" precision="I32">
					<dim>1</dim>
					<dim>-1</dim>
				</port>
				<port id="1" precision="I32">
					<dim>-1</dim>
					<dim>1</dim>
				</port>
			</input>
			<output>
				<port id="2" precision="BOOL">
					<dim>-1</dim>
					<dim>-1</dim>
				</port>
			</output>
		</layer>
		<layer id="195" name="__module.model/aten::triu/ConvertLike" type="Const" version="opset1">
			<data element_type="f32" shape="" offset="0" size="4" />
			<output>
				<port id="0" precision="FP32" />
			</output>
		</layer>
		<layer id="196" name="__module.model/aten::triu/Select" type="Select" version="opset1">
			<data auto_broadcast="numpy" />
			<input>
				<port id="0" precision="BOOL">
					<dim>-1</dim>
					<dim>-1</dim>
				</port>
				<port id="1" precision="FP32">
					<dim>-1</dim>
					<dim>-1</dim>
				</port>
				<port id="2" precision="FP32" />
			</input>
			<output>
				<port id="3" precision="FP32" names="249_1">
					<dim>-1</dim>
					<dim>-1</dim>
				</port>
			</output>
		</layer>
		<layer id="197" name="__module.model/aten::arange/Constant" type="Const" version="opset1">
			<data element_type="i32" shape="" offset="0" size="4" />
			<output>
				<port id="0" precision="I32" />
			</output>
		</layer>
		<layer id="198" name="__module.model/aten::arange/Constant_1" type="Const" version="opset1">
			<data element_type="i32" shape="" offset="70899332" size="4" />
			<output>
				<port id="0" precision="I32" />
			</output>
		</layer>
		<layer id="199" name="__module.model/aten::arange/Range" type="Range" version="opset4">
			<data output_type="f32" />
			<input>
				<port id="0" precision="I32" />
				<port id="1" precision="I64" />
				<port id="2" precision="I32" />
			</input>
			<output>
				<port id="3" precision="FP32">
					<dim>-1</dim>
				</port>
			</output>
		</layer>
		<layer id="200" name="__module.model/aten::arange/ConvertLike" type="Convert" version="opset1">
			<data destination_type="i64" />
			<input>
				<port id="0" precision="FP32">
					<dim>-1</dim>
				</port>
			</input>
			<output>
				<port id="1" precision="I64" names="250">
					<dim>-1</dim>
				</port>
			</output>
		</layer>
		<layer id="201" name="__module.model/aten::gt/Convert" type="Convert" version="opset1">
			<data destination_type="f32" />
			<input>
				<port id="0" precision="I64">
					<dim>-1</dim>
				</port>
			</input>
			<output>
				<port id="1" precision="FP32">
					<dim>-1</dim>
				</port>
			</output>
		</layer>
		<layer id="202" name="__module.model/aten::add/Add" type="Add" version="opset1">
			<data auto_broadcast="numpy" />
			<input>
				<port id="0" precision="I64" />
				<port id="1" precision="I64" />
			</input>
			<output>
				<port id="2" precision="I64" names="241" />
			</output>
		</layer>
		<layer id="203" name="__module.model/aten::arange/Constant_2" type="Const" version="opset1">
			<data element_type="i32" shape="" offset="70899332" size="4" />
			<output>
				<port id="0" precision="I32" />
			</output>
		</layer>
		<layer id="204" name="__module.model/aten::arange/Range_1" type="Range" version="opset4">
			<data output_type="f32" />
			<input>
				<port id="0" precision="I64" />
				<port id="1" precision="I64" />
				<port id="2" precision="I32" />
			</input>
			<output>
				<port id="3" precision="FP32" names="243,cache_position">
					<dim>-1</dim>
				</port>
			</output>
		</layer>
		<layer id="205" name="Constant_251" type="Const" version="opset1">
			<data element_type="i64" shape="2" offset="70899336" size="16" />
			<output>
				<port id="0" precision="I64" names="251">
					<dim>2</dim>
				</port>
			</output>
		</layer>
		<layer id="206" name="__module.model/aten::reshape/Reshape" type="Reshape" version="opset1">
			<data special_zero="false" />
			<input>
				<port id="0" precision="FP32">
					<dim>-1</dim>
				</port>
				<port id="1" precision="I64">
					<dim>2</dim>
				</port>
			</input>
			<output>
				<port id="2" precision="FP32" names="252">
					<dim>-1</dim>
					<dim>1</dim>
				</port>
			</output>
		</layer>
		<layer id="207" name="__module.model/aten::gt/Greater" type="Greater" version="opset1">
			<data auto_broadcast="numpy" />
			<input>
				<port id="0" precision="FP32">
					<dim>-1</dim>
				</port>
				<port id="1" precision="FP32">
					<dim>-1</dim>
					<dim>1</dim>
				</port>
			</input>
			<output>
				<port id="2" precision="BOOL" names="253">
					<dim>-1</dim>
					<dim>-1</dim>
				</port>
			</output>
		</layer>
		<layer id="208" name="__module.model/aten::mul_/ConvertLike" type="Convert" version="opset1">
			<data destination_type="f32" />
			<input>
				<port id="0" precision="BOOL">
					<dim>-1</dim>
					<dim>-1</dim>
				</port>
			</input>
			<output>
				<port id="1" precision="FP32">
					<dim>-1</dim>
					<dim>-1</dim>
				</port>
			</output>
		</layer>
		<layer id="209" name="__module.model/aten::mul_/Multiply" type="Multiply" version="opset1">
			<data auto_broadcast="numpy" />
			<input>
				<port id="0" precision="FP32">
					<dim>-1</dim>
					<dim>-1</dim>
				</port>
				<port id="1" precision="FP32">
					<dim>-1</dim>
					<dim>-1</dim>
				</port>
			</input>
			<output>
				<port id="2" precision="FP32" names="249,causal_mask.1">
					<dim>-1</dim>
					<dim>-1</dim>
				</port>
			</output>
		</layer>
		<layer id="210" name="179" type="Const" version="opset1">
			<data element_type="i64" shape="" offset="12" size="8" />
			<output>
				<port id="0" precision="I64" names="179" />
			</output>
		</layer>
		<layer id="211" name="__module.model/aten::unsqueeze/Unsqueeze" type="Unsqueeze" version="opset1">
			<input>
				<port id="0" precision="FP32">
					<dim>-1</dim>
					<dim>-1</dim>
				</port>
				<port id="1" precision="I64" />
			</input>
			<output>
				<port id="2" precision="FP32" names="255">
					<dim>1</dim>
					<dim>-1</dim>
					<dim>-1</dim>
				</port>
			</output>
		</layer>
		<layer id="212" name="__module.model/aten::unsqueeze/Unsqueeze_1" type="Unsqueeze" version="opset1">
			<input>
				<port id="0" precision="FP32">
					<dim>1</dim>
					<dim>-1</dim>
					<dim>-1</dim>
				</port>
				<port id="1" precision="I64" />
			</input>
			<output>
				<port id="2" precision="FP32" names="256,257,258">
					<dim>1</dim>
					<dim>1</dim>
					<dim>-1</dim>
					<dim>-1</dim>
				</port>
			</output>
		</layer>
		<layer id="213" name="Constant_47142" type="Const" version="opset1">
			<data element_type="i64" shape="1" offset="69849056" size="8" />
			<output>
				<port id="0" precision="I64">
					<dim>1</dim>
				</port>
			</output>
		</layer>
		<layer id="214" name="Constant_47144" type="Const" version="opset1">
			<data element_type="i64" shape="1" offset="69849056" size="8" />
			<output>
				<port id="0" precision="I64">
					<dim>1</dim>
				</port>
			</output>
		</layer>
		<layer id="215" name="Constant_47146" type="Const" version="opset1">
			<data element_type="i64" shape="1" offset="69849056" size="8" />
			<output>
				<port id="0" precision="I64">
					<dim>1</dim>
				</port>
			</output>
		</layer>
		<layer id="216" name="__module.model/prim::ListConstruct_1" type="Concat" version="opset1">
			<data axis="0" />
			<input>
				<port id="0" precision="I64">
					<dim>1</dim>
				</port>
				<port id="1" precision="I64">
					<dim>1</dim>
				</port>
				<port id="2" precision="I64">
					<dim>1</dim>
				</port>
				<port id="3" precision="I64">
					<dim>1</dim>
				</port>
			</input>
			<output>
				<port id="4" precision="I64">
					<dim>4</dim>
				</port>
			</output>
		</layer>
		<layer id="217" name="__module.model/aten::expand/Broadcast" type="Broadcast" version="opset3">
			<data mode="bidirectional" />
			<input>
				<port id="0" precision="FP32">
					<dim>1</dim>
					<dim>1</dim>
					<dim>-1</dim>
					<dim>-1</dim>
				</port>
				<port id="1" precision="I64">
					<dim>4</dim>
				</port>
			</input>
			<output>
				<port id="2" precision="FP32" names="261,264,265,266,274,275,276,279_1,280_1,281_1,causal_mask.5">
					<dim>-1</dim>
					<dim>1</dim>
					<dim>-1</dim>
					<dim>-1</dim>
				</port>
			</output>
		</layer>
		<layer id="218" name="Constant_751338" type="Const" version="opset1">
			<data element_type="i64" shape="1" offset="65648420" size="8" />
			<output>
				<port id="0" precision="I64">
					<dim>1</dim>
				</port>
			</output>
		</layer>
		<layer id="219" name="SliceAssign_468/Reshape_3" type="Reshape" version="opset1">
			<data special_zero="false" />
			<input>
				<port id="0" precision="FP32">
					<dim>-1</dim>
					<dim>1</dim>
					<dim>-1</dim>
					<dim>-1</dim>
				</port>
				<port id="1" precision="I64">
					<dim>1</dim>
				</port>
			</input>
			<output>
				<port id="2" precision="FP32">
					<dim>-1</dim>
				</port>
			</output>
		</layer>
		<layer id="220" name="Constant_24950" type="Const" version="opset1">
			<data element_type="i64" shape="" offset="12" size="8" />
			<output>
				<port id="0" precision="I64" />
			</output>
		</layer>
		<layer id="221" name="SliceAssign_468/ShapeOf" type="ShapeOf" version="opset3">
			<data output_type="i64" />
			<input>
				<port id="0" precision="FP32">
					<dim>-1</dim>
					<dim>1</dim>
					<dim>-1</dim>
					<dim>-1</dim>
				</port>
			</input>
			<output>
				<port id="1" precision="I64">
					<dim>4</dim>
				</port>
			</output>
		</layer>
		<layer id="222" name="SliceAssign_468/ReduceProd" type="ReduceProd" version="opset1">
			<data keep_dims="false" />
			<input>
				<port id="0" precision="I64">
					<dim>4</dim>
				</port>
				<port id="1" precision="I64" />
			</input>
			<output>
				<port id="2" precision="I64" />
			</output>
		</layer>
		<layer id="223" name="Constant_24951" type="Const" version="opset1">
			<data element_type="i64" shape="" offset="69849056" size="8" />
			<output>
				<port id="0" precision="I64" />
			</output>
		</layer>
		<layer id="224" name="SliceAssign_468/Range" type="Range" version="opset4">
			<data output_type="i64" />
			<input>
				<port id="0" precision="I64" />
				<port id="1" precision="I64" />
				<port id="2" precision="I64" />
			</input>
			<output>
				<port id="3" precision="I64">
					<dim>-1</dim>
				</port>
			</output>
		</layer>
		<layer id="225" name="SliceAssign_468/Reshape" type="Reshape" version="opset1">
			<data special_zero="false" />
			<input>
				<port id="0" precision="I64">
					<dim>-1</dim>
				</port>
				<port id="1" precision="I64">
					<dim>4</dim>
				</port>
			</input>
			<output>
				<port id="2" precision="I64">
					<dim>-1</dim>
					<dim>1</dim>
					<dim>-1</dim>
					<dim>-1</dim>
				</port>
			</output>
		</layer>
		<layer id="226" name="Constant_458" type="Const" version="opset1">
			<data element_type="i64" shape="1" offset="12" size="8" />
			<output>
				<port id="0" precision="I64">
					<dim>1</dim>
				</port>
			</output>
		</layer>
		<layer id="227" name="Constant_461" type="Const" version="opset1">
			<data element_type="i64" shape="1" offset="69849056" size="8" />
			<output>
				<port id="0" precision="I64">
					<dim>1</dim>
				</port>
			</output>
		</layer>
		<layer id="228" name="Constant_456" type="Const" version="opset1">
			<data element_type="i64" shape="1" offset="69849092" size="8" />
			<output>
				<port id="0" precision="I64">
					<dim>1</dim>
				</port>
			</output>
		</layer>
		<layer id="229" name="SliceAssign_468/Slice_2" type="Slice" version="opset8">
			<input>
				<port id="0" precision="I64">
					<dim>-1</dim>
					<dim>1</dim>
					<dim>-1</dim>
					<dim>-1</dim>
				</port>
				<port id="1" precision="I64">
					<dim>1</dim>
				</port>
				<port id="2" precision="I64">
					<dim>1</dim>
				</port>
				<port id="3" precision="I64">
					<dim>1</dim>
				</port>
				<port id="4" precision="I64">
					<dim>1</dim>
				</port>
			</input>
			<output>
				<port id="5" precision="I64">
					<dim>-1</dim>
					<dim>1</dim>
					<dim>-1</dim>
					<dim>-1</dim>
				</port>
			</output>
		</layer>
		<layer id="230" name="Constant_24953" type="Const" version="opset1">
			<data element_type="i64" shape="2" offset="70899336" size="16" />
			<output>
				<port id="0" precision="I64">
					<dim>2</dim>
				</port>
			</output>
		</layer>
		<layer id="231" name="SliceAssign_468/Reshape_4" type="Reshape" version="opset1">
			<data special_zero="false" />
			<input>
				<port id="0" precision="I64">
					<dim>-1</dim>
					<dim>1</dim>
					<dim>-1</dim>
					<dim>-1</dim>
				</port>
				<port id="1" precision="I64">
					<dim>2</dim>
				</port>
			</input>
			<output>
				<port id="2" precision="I64">
					<dim>-1</dim>
					<dim>1</dim>
				</port>
			</output>
		</layer>
		<layer id="232" name="Constant_341" type="Const" version="opset1">
			<data element_type="i64" shape="1" offset="12" size="8" />
			<output>
				<port id="0" precision="I64">
					<dim>1</dim>
				</port>
			</output>
		</layer>
		<layer id="233" name="Constant_344" type="Const" version="opset1">
			<data element_type="i64" shape="1" offset="69849056" size="8" />
			<output>
				<port id="0" precision="I64">
					<dim>1</dim>
				</port>
			</output>
		</layer>
		<layer id="234" name="Constant_339" type="Const" version="opset1">
			<data element_type="i64" shape="1" offset="69849092" size="8" />
			<output>
				<port id="0" precision="I64">
					<dim>1</dim>
				</port>
			</output>
		</layer>
		<layer id="235" name="__module.model/aten::slice/Slice_5" type="Slice" version="opset8">
			<input>
				<port id="0" precision="FP32">
					<dim>-1</dim>
					<dim>1</dim>
					<dim>-1</dim>
					<dim>-1</dim>
				</port>
				<port id="1" precision="I64">
					<dim>1</dim>
				</port>
				<port id="2" precision="I64">
					<dim>1</dim>
				</port>
				<port id="3" precision="I64">
					<dim>1</dim>
				</port>
				<port id="4" precision="I64">
					<dim>1</dim>
				</port>
			</input>
			<output>
				<port id="5" precision="FP32" names="267,277,282_1">
					<dim>-1</dim>
					<dim>1</dim>
					<dim>-1</dim>
					<dim>-1</dim>
				</port>
			</output>
		</layer>
		<layer id="236" name="__module.model/aten::unsqueeze/Unsqueeze_2" type="Unsqueeze" version="opset1">
			<input>
				<port id="0" precision="I64">
					<dim>-1</dim>
					<dim>-1</dim>
				</port>
				<port id="1" precision="I64" />
			</input>
			<output>
				<port id="2" precision="I64" names="269">
					<dim>-1</dim>
					<dim>1</dim>
					<dim>-1</dim>
				</port>
			</output>
		</layer>
		<layer id="237" name="__module.model/aten::unsqueeze/Unsqueeze_3" type="Unsqueeze" version="opset1">
			<input>
				<port id="0" precision="I64">
					<dim>-1</dim>
					<dim>1</dim>
					<dim>-1</dim>
				</port>
				<port id="1" precision="I64" />
			</input>
			<output>
				<port id="2" precision="I64" names="270,271">
					<dim>-1</dim>
					<dim>1</dim>
					<dim>1</dim>
					<dim>-1</dim>
				</port>
			</output>
		</layer>
		<layer id="238" name="__module.model/aten::add/Convert" type="Convert" version="opset1">
			<data destination_type="f32" />
			<input>
				<port id="0" precision="I64">
					<dim>-1</dim>
					<dim>1</dim>
					<dim>1</dim>
					<dim>-1</dim>
				</port>
			</input>
			<output>
				<port id="1" precision="FP32">
					<dim>-1</dim>
					<dim>1</dim>
					<dim>1</dim>
					<dim>-1</dim>
				</port>
			</output>
		</layer>
		<layer id="239" name="__module.model/aten::add/Add_1" type="Add" version="opset1">
			<data auto_broadcast="numpy" />
			<input>
				<port id="0" precision="FP32">
					<dim>-1</dim>
					<dim>1</dim>
					<dim>-1</dim>
					<dim>-1</dim>
				</port>
				<port id="1" precision="FP32">
					<dim>-1</dim>
					<dim>1</dim>
					<dim>1</dim>
					<dim>-1</dim>
				</port>
			</input>
			<output>
				<port id="2" precision="FP32" names="272,padding_mask.1">
					<dim>-1</dim>
					<dim>1</dim>
					<dim>-1</dim>
					<dim>-1</dim>
				</port>
			</output>
		</layer>
		<layer id="240" name="Constant_52583" type="Const" version="opset1">
			<data element_type="f32" shape="1, 1, 1, 1" offset="0" size="4" />
			<output>
				<port id="0" precision="FP32">
					<dim>1</dim>
					<dim>1</dim>
					<dim>1</dim>
					<dim>1</dim>
				</port>
			</output>
		</layer>
		<layer id="241" name="__module.model/aten::eq/Equal" type="Equal" version="opset1">
			<data auto_broadcast="numpy" />
			<input>
				<port id="0" precision="FP32">
					<dim>-1</dim>
					<dim>1</dim>
					<dim>-1</dim>
					<dim>-1</dim>
				</port>
				<port id="1" precision="FP32">
					<dim>1</dim>
					<dim>1</dim>
					<dim>1</dim>
					<dim>1</dim>
				</port>
			</input>
			<output>
				<port id="2" precision="BOOL" names="273,padding_mask">
					<dim>-1</dim>
					<dim>1</dim>
					<dim>-1</dim>
					<dim>-1</dim>
				</port>
			</output>
		</layer>
		<layer id="242" name="__module.model/aten::masked_fill/ConvertLike" type="Const" version="opset1">
			<data element_type="f32" shape="" offset="70899312" size="4" />
			<output>
				<port id="0" precision="FP32" />
			</output>
		</layer>
		<layer id="243" name="__module.model/aten::masked_fill/Select" type="Select" version="opset1">
			<data auto_broadcast="numpy" />
			<input>
				<port id="0" precision="BOOL">
					<dim>-1</dim>
					<dim>1</dim>
					<dim>-1</dim>
					<dim>-1</dim>
				</port>
				<port id="1" precision="FP32" />
				<port id="2" precision="FP32">
					<dim>-1</dim>
					<dim>1</dim>
					<dim>-1</dim>
					<dim>-1</dim>
				</port>
			</input>
			<output>
				<port id="3" precision="FP32" names="278">
					<dim>-1</dim>
					<dim>1</dim>
					<dim>-1</dim>
					<dim>-1</dim>
				</port>
			</output>
		</layer>
		<layer id="244" name="__module.model/aten::copy_/ShapeOf" type="ShapeOf" version="opset3">
			<data output_type="i64" />
			<input>
				<port id="0" precision="FP32">
					<dim>-1</dim>
					<dim>1</dim>
					<dim>-1</dim>
					<dim>-1</dim>
				</port>
			</input>
			<output>
				<port id="1" precision="I64">
					<dim>4</dim>
				</port>
			</output>
		</layer>
		<layer id="245" name="__module.model/aten::copy_/Broadcast" type="Broadcast" version="opset3">
			<data mode="numpy" />
			<input>
				<port id="0" precision="FP32">
					<dim>-1</dim>
					<dim>1</dim>
					<dim>-1</dim>
					<dim>-1</dim>
				</port>
				<port id="1" precision="I64">
					<dim>4</dim>
				</port>
			</input>
			<output>
				<port id="2" precision="FP32" names="282">
					<dim>-1</dim>
					<dim>1</dim>
					<dim>-1</dim>
					<dim>-1</dim>
				</port>
			</output>
		</layer>
		<layer id="246" name="Constant_751339" type="Const" version="opset1">
			<data element_type="i64" shape="1" offset="65648420" size="8" />
			<output>
				<port id="0" precision="I64">
					<dim>1</dim>
				</port>
			</output>
		</layer>
		<layer id="247" name="SliceAssign_468/Reshape_5" type="Reshape" version="opset1">
			<data special_zero="false" />
			<input>
				<port id="0" precision="FP32">
					<dim>-1</dim>
					<dim>1</dim>
					<dim>-1</dim>
					<dim>-1</dim>
				</port>
				<port id="1" precision="I64">
					<dim>1</dim>
				</port>
			</input>
			<output>
				<port id="2" precision="FP32">
					<dim>-1</dim>
				</port>
			</output>
		</layer>
		<layer id="248" name="SliceAssign_468/ScatterNDUpdate" type="ScatterNDUpdate" version="opset4">
			<input>
				<port id="0" precision="FP32">
					<dim>-1</dim>
				</port>
				<port id="1" precision="I64">
					<dim>-1</dim>
					<dim>1</dim>
				</port>
				<port id="2" precision="FP32">
					<dim>-1</dim>
				</port>
			</input>
			<output>
				<port id="3" precision="FP32">
					<dim>-1</dim>
				</port>
			</output>
		</layer>
		<layer id="249" name="SliceAssign_468/Reshape_6" type="Reshape" version="opset1">
			<data special_zero="false" />
			<input>
				<port id="0" precision="FP32">
					<dim>-1</dim>
				</port>
				<port id="1" precision="I64">
					<dim>4</dim>
				</port>
			</input>
			<output>
				<port id="2" precision="FP32" names="1055,1056,1057,1213,1214,1215,1371,1372,1373,1529,1530,1531,1687,1688,1689,1845,1846,1847,2003,2004,2005,2161,2162,2163,2319,2320,2321,2477,2478,2479,262,2635,2636,2637,2793,2794,2795,2951,2952,2953,3109,3110,3111,3267,3268,3269,3425,3426,3427,3583,3584,3585,3741,3742,3743,423,424,425,581,582,583,739,740,741,897,898,899">
					<dim>-1</dim>
					<dim>1</dim>
					<dim>-1</dim>
					<dim>-1</dim>
				</port>
			</output>
		</layer>
		<layer id="250" name="Constant_1557" type="Const" version="opset1">
			<data element_type="i64" shape="1" offset="12" size="8" />
			<output>
				<port id="0" precision="I64">
					<dim>1</dim>
				</port>
			</output>
		</layer>
		<layer id="251" name="Constant_1560" type="Const" version="opset1">
			<data element_type="i64" shape="1" offset="69849056" size="8" />
			<output>
				<port id="0" precision="I64">
					<dim>1</dim>
				</port>
			</output>
		</layer>
		<layer id="252" name="Constant_1555" type="Const" version="opset1">
			<data element_type="i64" shape="1" offset="69849092" size="8" />
			<output>
				<port id="0" precision="I64">
					<dim>1</dim>
				</port>
			</output>
		</layer>
		<layer id="253" name="__module.model.layers.0.self_attn/aten::slice/Slice_15" type="Slice" version="opset8">
			<input>
				<port id="0" precision="FP32">
					<dim>-1</dim>
					<dim>1</dim>
					<dim>-1</dim>
					<dim>-1</dim>
				</port>
				<port id="1" precision="I64">
					<dim>1</dim>
				</port>
				<port id="2" precision="I64">
					<dim>1</dim>
				</port>
				<port id="3" precision="I64">
					<dim>1</dim>
				</port>
				<port id="4" precision="I64">
					<dim>1</dim>
				</port>
			</input>
			<output>
				<port id="5" precision="FP32" names="1058,1216,1374,1532,1690,1848,2006,2164,2322,2480,2638,2796,2954,3112,3270,3428,3586,3744,426,584,742,900">
					<dim>-1</dim>
					<dim>1</dim>
					<dim>-1</dim>
					<dim>-1</dim>
				</port>
			</output>
		</layer>
		<layer id="254" name="__module.model.layers.0.self_attn/aten::scaled_dot_product_attention/ConvertLike" type="Const" version="opset1">
			<data element_type="f32" shape="" offset="70899352" size="4" />
			<output>
				<port id="0" precision="FP32" />
			</output>
		</layer>
		<layer id="255" name="__module.model.layers.0.self_attn/aten::scaled_dot_product_attention/ScaledDotProductAttention" type="ScaledDotProductAttention" version="opset13">
			<data causal="false" />
			<input>
				<port id="0" precision="FP32">
					<dim>-1</dim>
					<dim>32</dim>
					<dim>-1</dim>
					<dim>64</dim>
				</port>
				<port id="1" precision="FP32">
					<dim>-1</dim>
					<dim>32</dim>
					<dim>-1</dim>
					<dim>64</dim>
				</port>
				<port id="2" precision="FP32">
					<dim>-1</dim>
					<dim>32</dim>
					<dim>-1</dim>
					<dim>64</dim>
				</port>
				<port id="3" precision="FP32">
					<dim>-1</dim>
					<dim>1</dim>
					<dim>-1</dim>
					<dim>-1</dim>
				</port>
				<port id="4" precision="FP32" />
			</input>
			<output>
				<port id="5" precision="FP32" names="430,attn_output.1">
					<dim>-1</dim>
					<dim>32</dim>
					<dim>-1</dim>
					<dim>64</dim>
				</port>
			</output>
		</layer>
		<layer id="256" name="__module.model.layers.0.self_attn/aten::transpose/Constant_3" type="Const" version="opset1">
			<data element_type="i32" shape="4" offset="69848912" size="16" />
			<output>
				<port id="0" precision="I32">
					<dim>4</dim>
				</port>
			</output>
		</layer>
		<layer id="257" name="__module.model.layers.0.self_attn/aten::transpose/Transpose_3" type="Transpose" version="opset1">
			<input>
				<port id="0" precision="FP32">
					<dim>-1</dim>
					<dim>32</dim>
					<dim>-1</dim>
					<dim>64</dim>
				</port>
				<port id="1" precision="I32">
					<dim>4</dim>
				</port>
			</input>
			<output>
				<port id="2" precision="FP32" names="431">
					<dim>-1</dim>
					<dim>-1</dim>
					<dim>32</dim>
					<dim>64</dim>
				</port>
			</output>
		</layer>
		<layer id="258" name="Constant_48733" type="Const" version="opset1">
			<data element_type="i64" shape="2" offset="70374200" size="16" />
			<output>
				<port id="0" precision="I64">
					<dim>2</dim>
				</port>
			</output>
		</layer>
		<layer id="259" name="Constant_48734" type="Const" version="opset1">
			<data element_type="i64" shape="" offset="12" size="8" />
			<output>
				<port id="0" precision="I64" />
			</output>
		</layer>
		<layer id="260" name="Gather_48735" type="Gather" version="opset8">
			<data batch_dims="0" />
			<input>
				<port id="0" precision="I64">
					<dim>3</dim>
				</port>
				<port id="1" precision="I64">
					<dim>2</dim>
				</port>
				<port id="2" precision="I64" />
			</input>
			<output>
				<port id="3" precision="I64">
					<dim>2</dim>
				</port>
			</output>
		</layer>
		<layer id="261" name="Constant_1602" type="Const" version="opset1">
			<data element_type="i64" shape="1" offset="65648420" size="8" />
			<output>
				<port id="0" precision="I64">
					<dim>1</dim>
				</port>
			</output>
		</layer>
		<layer id="262" name="__module.model.layers.0.self_attn/prim::ListConstruct_7" type="Concat" version="opset1">
			<data axis="0" />
			<input>
				<port id="0" precision="I64">
					<dim>2</dim>
				</port>
				<port id="1" precision="I64">
					<dim>1</dim>
				</port>
			</input>
			<output>
				<port id="2" precision="I64">
					<dim>3</dim>
				</port>
			</output>
		</layer>
		<layer id="263" name="__module.model.layers.0.self_attn/aten::reshape/Reshape_2" type="Reshape" version="opset1">
			<data special_zero="false" />
			<input>
				<port id="0" precision="FP32">
					<dim>-1</dim>
					<dim>-1</dim>
					<dim>32</dim>
					<dim>64</dim>
				</port>
				<port id="1" precision="I64">
					<dim>3</dim>
				</port>
			</input>
			<output>
				<port id="2" precision="FP32" names="434">
					<dim>-1</dim>
					<dim>-1</dim>
					<dim>-1</dim>
				</port>
			</output>
		</layer>
		<layer id="264" name="self.model.layers.0.self_attn.o_proj.weight" type="Const" version="opset1">
			<data element_type="u8" shape="2048, 2048" offset="70899356" size="4194304" />
			<output>
				<port id="0" precision="U8">
					<dim>2048</dim>
					<dim>2048</dim>
				</port>
			</output>
		</layer>
		<layer id="265" name="Convert_368917" type="Convert" version="opset1">
			<data destination_type="f16" />
			<input>
				<port id="0" precision="U8">
					<dim>2048</dim>
					<dim>2048</dim>
				</port>
			</input>
			<output>
				<port id="1" precision="FP16">
					<dim>2048</dim>
					<dim>2048</dim>
				</port>
			</output>
		</layer>
		<layer id="266" name="self.model.layers.0.self_attn.o_proj.weight/zero_point" type="Const" version="opset1">
			<data element_type="u8" shape="2048, 1" offset="75093660" size="2048" />
			<output>
				<port id="0" precision="U8">
					<dim>2048</dim>
					<dim>1</dim>
				</port>
			</output>
		</layer>
		<layer id="267" name="Convert_368920" type="Convert" version="opset1">
			<data destination_type="f16" />
			<input>
				<port id="0" precision="U8">
					<dim>2048</dim>
					<dim>1</dim>
				</port>
			</input>
			<output>
				<port id="1" precision="FP16">
					<dim>2048</dim>
					<dim>1</dim>
				</port>
			</output>
		</layer>
		<layer id="268" name="self.model.layers.0.self_attn.o_proj.weight/zero_point/subtract" type="Subtract" version="opset1">
			<data auto_broadcast="numpy" />
			<input>
				<port id="0" precision="FP16">
					<dim>2048</dim>
					<dim>2048</dim>
				</port>
				<port id="1" precision="FP16">
					<dim>2048</dim>
					<dim>1</dim>
				</port>
			</input>
			<output>
				<port id="2" precision="FP16">
					<dim>2048</dim>
					<dim>2048</dim>
				</port>
			</output>
		</layer>
		<layer id="269" name="self.model.layers.0.self_attn.o_proj.weight/scale" type="Const" version="opset1">
			<data element_type="f16" shape="2048, 1" offset="75095708" size="4096" />
			<output>
				<port id="0" precision="FP16">
					<dim>2048</dim>
					<dim>1</dim>
				</port>
			</output>
		</layer>
		<layer id="270" name="self.model.layers.0.self_attn.o_proj.weight/fq_weights_1" type="Multiply" version="opset1">
			<data auto_broadcast="numpy" />
			<input>
				<port id="0" precision="FP16">
					<dim>2048</dim>
					<dim>2048</dim>
				</port>
				<port id="1" precision="FP16">
					<dim>2048</dim>
					<dim>1</dim>
				</port>
			</input>
			<output>
				<port id="2" precision="FP16">
					<dim>2048</dim>
					<dim>2048</dim>
				</port>
			</output>
		</layer>
		<layer id="271" name="self.model.layers.0.self_attn.o_proj.weight/fq_weights_1/convert" type="Convert" version="opset1">
			<data destination_type="f32" />
			<input>
				<port id="0" precision="FP16">
					<dim>2048</dim>
					<dim>2048</dim>
				</port>
			</input>
			<output>
				<port id="1" precision="FP32">
					<dim>2048</dim>
					<dim>2048</dim>
				</port>
			</output>
		</layer>
		<layer id="272" name="__module.model.layers.0.self_attn.o_proj/aten::linear/MatMul" type="MatMul" version="opset1">
			<data transpose_a="false" transpose_b="true" />
			<input>
				<port id="0" precision="FP32">
					<dim>-1</dim>
					<dim>-1</dim>
					<dim>-1</dim>
				</port>
				<port id="1" precision="FP32">
					<dim>2048</dim>
					<dim>2048</dim>
				</port>
			</input>
			<output>
				<port id="2" precision="FP32" names="437,439,hidden_states.17">
					<dim>-1</dim>
					<dim>-1</dim>
					<dim>2048</dim>
				</port>
			</output>
		</layer>
		<layer id="273" name="__module.model.layers.0/aten::add/Add" type="Add" version="opset1">
			<data auto_broadcast="numpy" />
			<input>
				<port id="0" precision="FP32">
					<dim>-1</dim>
					<dim>-1</dim>
					<dim>2048</dim>
				</port>
				<port id="1" precision="FP32">
					<dim>-1</dim>
					<dim>-1</dim>
					<dim>2048</dim>
				</port>
			</input>
			<output>
				<port id="2" precision="FP32" names="442,444,455,hidden_states.19,hidden_states.21">
					<dim>-1</dim>
					<dim>-1</dim>
					<dim>2048</dim>
				</port>
			</output>
		</layer>
		<layer id="274" name="Constant_52587" type="Const" version="opset1">
			<data element_type="f32" shape="1, 1, 2048" offset="75099804" size="8192" />
			<output>
				<port id="0" precision="FP32">
					<dim>1</dim>
					<dim>1</dim>
					<dim>2048</dim>
				</port>
			</output>
		</layer>
		<layer id="275" name="Constant_52586" type="Const" version="opset1">
			<data element_type="f32" shape="1, 1, 1" offset="65648412" size="4" />
			<output>
				<port id="0" precision="FP32">
					<dim>1</dim>
					<dim>1</dim>
					<dim>1</dim>
				</port>
			</output>
		</layer>
		<layer id="276" name="Constant_52584" type="Const" version="opset1">
			<data element_type="f32" shape="1, 1, 1" offset="65648416" size="4" />
			<output>
				<port id="0" precision="FP32">
					<dim>1</dim>
					<dim>1</dim>
					<dim>1</dim>
				</port>
			</output>
		</layer>
		<layer id="277" name="__module.model.layers.0.post_attention_layernorm/aten::pow/Power" type="Power" version="opset1">
			<data auto_broadcast="numpy" />
			<input>
				<port id="0" precision="FP32">
					<dim>-1</dim>
					<dim>-1</dim>
					<dim>2048</dim>
				</port>
				<port id="1" precision="FP32">
					<dim>1</dim>
					<dim>1</dim>
					<dim>1</dim>
				</port>
			</input>
			<output>
				<port id="2" precision="FP32" names="445">
					<dim>-1</dim>
					<dim>-1</dim>
					<dim>2048</dim>
				</port>
			</output>
		</layer>
		<layer id="278" name="Constant_1629" type="Const" version="opset1">
			<data element_type="i64" shape="1" offset="65648420" size="8" />
			<output>
				<port id="0" precision="I64" names="446">
					<dim>1</dim>
				</port>
			</output>
		</layer>
		<layer id="279" name="__module.model.layers.0.post_attention_layernorm/aten::mean/ReduceMean" type="ReduceMean" version="opset1">
			<data keep_dims="true" />
			<input>
				<port id="0" precision="FP32">
					<dim>-1</dim>
					<dim>-1</dim>
					<dim>2048</dim>
				</port>
				<port id="1" precision="I64">
					<dim>1</dim>
				</port>
			</input>
			<output>
				<port id="2" precision="FP32" names="447,variance.3">
					<dim>-1</dim>
					<dim>-1</dim>
					<dim>1</dim>
				</port>
			</output>
		</layer>
		<layer id="280" name="Constant_52585" type="Const" version="opset1">
			<data element_type="f32" shape="1, 1, 1" offset="65648428" size="4" />
			<output>
				<port id="0" precision="FP32">
					<dim>1</dim>
					<dim>1</dim>
					<dim>1</dim>
				</port>
			</output>
		</layer>
		<layer id="281" name="__module.model.layers.0.post_attention_layernorm/aten::add/Add" type="Add" version="opset1">
			<data auto_broadcast="numpy" />
			<input>
				<port id="0" precision="FP32">
					<dim>-1</dim>
					<dim>-1</dim>
					<dim>1</dim>
				</port>
				<port id="1" precision="FP32">
					<dim>1</dim>
					<dim>1</dim>
					<dim>1</dim>
				</port>
			</input>
			<output>
				<port id="2" precision="FP32" names="448">
					<dim>-1</dim>
					<dim>-1</dim>
					<dim>1</dim>
				</port>
			</output>
		</layer>
		<layer id="282" name="__module.model.layers.0.post_attention_layernorm/aten::rsqrt/Sqrt" type="Sqrt" version="opset1">
			<input>
				<port id="0" precision="FP32">
					<dim>-1</dim>
					<dim>-1</dim>
					<dim>1</dim>
				</port>
			</input>
			<output>
				<port id="1" precision="FP32">
					<dim>-1</dim>
					<dim>-1</dim>
					<dim>1</dim>
				</port>
			</output>
		</layer>
		<layer id="283" name="__module.model.layers.0.post_attention_layernorm/aten::rsqrt/Divide" type="Divide" version="opset1">
			<data auto_broadcast="numpy" m_pythondiv="true" />
			<input>
				<port id="0" precision="FP32">
					<dim>1</dim>
					<dim>1</dim>
					<dim>1</dim>
				</port>
				<port id="1" precision="FP32">
					<dim>-1</dim>
					<dim>-1</dim>
					<dim>1</dim>
				</port>
			</input>
			<output>
				<port id="2" precision="FP32" names="449">
					<dim>-1</dim>
					<dim>-1</dim>
					<dim>1</dim>
				</port>
			</output>
		</layer>
		<layer id="284" name="__module.model.layers.0.post_attention_layernorm/aten::mul/Multiply" type="Multiply" version="opset1">
			<data auto_broadcast="numpy" />
			<input>
				<port id="0" precision="FP32">
					<dim>-1</dim>
					<dim>-1</dim>
					<dim>2048</dim>
				</port>
				<port id="1" precision="FP32">
					<dim>-1</dim>
					<dim>-1</dim>
					<dim>1</dim>
				</port>
			</input>
			<output>
				<port id="2" precision="FP32" names="450,451,hidden_states.23,hidden_states.25">
					<dim>-1</dim>
					<dim>-1</dim>
					<dim>2048</dim>
				</port>
			</output>
		</layer>
		<layer id="285" name="__module.model.layers.0.post_attention_layernorm/aten::mul/Multiply_1" type="Multiply" version="opset1">
			<data auto_broadcast="numpy" />
			<input>
				<port id="0" precision="FP32">
					<dim>1</dim>
					<dim>1</dim>
					<dim>2048</dim>
				</port>
				<port id="1" precision="FP32">
					<dim>-1</dim>
					<dim>-1</dim>
					<dim>2048</dim>
				</port>
			</input>
			<output>
				<port id="2" precision="FP32" names="452,454">
					<dim>-1</dim>
					<dim>-1</dim>
					<dim>2048</dim>
				</port>
			</output>
		</layer>
		<layer id="286" name="self.model.layers.0.mlp.gate_proj.weight" type="Const" version="opset1">
			<data element_type="u8" shape="5632, 2048" offset="75107996" size="11534336" />
			<output>
				<port id="0" precision="U8">
					<dim>5632</dim>
					<dim>2048</dim>
				</port>
			</output>
		</layer>
		<layer id="287" name="Convert_89209" type="Convert" version="opset1">
			<data destination_type="f16" />
			<input>
				<port id="0" precision="U8">
					<dim>5632</dim>
					<dim>2048</dim>
				</port>
			</input>
			<output>
				<port id="1" precision="FP16">
					<dim>5632</dim>
					<dim>2048</dim>
				</port>
			</output>
		</layer>
		<layer id="288" name="self.model.layers.0.mlp.gate_proj.weight/zero_point" type="Const" version="opset1">
			<data element_type="u8" shape="5632, 1" offset="86642332" size="5632" />
			<output>
				<port id="0" precision="U8">
					<dim>5632</dim>
					<dim>1</dim>
				</port>
			</output>
		</layer>
		<layer id="289" name="Convert_89212" type="Convert" version="opset1">
			<data destination_type="f16" />
			<input>
				<port id="0" precision="U8">
					<dim>5632</dim>
					<dim>1</dim>
				</port>
			</input>
			<output>
				<port id="1" precision="FP16">
					<dim>5632</dim>
					<dim>1</dim>
				</port>
			</output>
		</layer>
		<layer id="290" name="self.model.layers.0.mlp.gate_proj.weight/zero_point/subtract" type="Subtract" version="opset1">
			<data auto_broadcast="numpy" />
			<input>
				<port id="0" precision="FP16">
					<dim>5632</dim>
					<dim>2048</dim>
				</port>
				<port id="1" precision="FP16">
					<dim>5632</dim>
					<dim>1</dim>
				</port>
			</input>
			<output>
				<port id="2" precision="FP16">
					<dim>5632</dim>
					<dim>2048</dim>
				</port>
			</output>
		</layer>
		<layer id="291" name="self.model.layers.0.mlp.gate_proj.weight/scale" type="Const" version="opset1">
			<data element_type="f16" shape="5632, 1" offset="86647964" size="11264" />
			<output>
				<port id="0" precision="FP16">
					<dim>5632</dim>
					<dim>1</dim>
				</port>
			</output>
		</layer>
		<layer id="292" name="self.model.layers.0.mlp.gate_proj.weight/fq_weights_1" type="Multiply" version="opset1">
			<data auto_broadcast="numpy" />
			<input>
				<port id="0" precision="FP16">
					<dim>5632</dim>
					<dim>2048</dim>
				</port>
				<port id="1" precision="FP16">
					<dim>5632</dim>
					<dim>1</dim>
				</port>
			</input>
			<output>
				<port id="2" precision="FP16">
					<dim>5632</dim>
					<dim>2048</dim>
				</port>
			</output>
		</layer>
		<layer id="293" name="self.model.layers.0.mlp.gate_proj.weight/fq_weights_1/convert" type="Convert" version="opset1">
			<data destination_type="f32" />
			<input>
				<port id="0" precision="FP16">
					<dim>5632</dim>
					<dim>2048</dim>
				</port>
			</input>
			<output>
				<port id="1" precision="FP32">
					<dim>5632</dim>
					<dim>2048</dim>
				</port>
			</output>
		</layer>
		<layer id="294" name="__module.model.layers.0.mlp.gate_proj/aten::linear/MatMul" type="MatMul" version="opset1">
			<data transpose_a="false" transpose_b="true" />
			<input>
				<port id="0" precision="FP32">
					<dim>-1</dim>
					<dim>-1</dim>
					<dim>2048</dim>
				</port>
				<port id="1" precision="FP32">
					<dim>5632</dim>
					<dim>2048</dim>
				</port>
			</input>
			<output>
				<port id="2" precision="FP32" names="460,input.1">
					<dim>-1</dim>
					<dim>-1</dim>
					<dim>5632</dim>
				</port>
			</output>
		</layer>
		<layer id="295" name="__module.model.layers.0.mlp.act_fn/aten::silu/Swish" type="Swish" version="opset4">
			<input>
				<port id="0" precision="FP32">
					<dim>-1</dim>
					<dim>-1</dim>
					<dim>5632</dim>
				</port>
			</input>
			<output>
				<port id="1" precision="FP32" names="461">
					<dim>-1</dim>
					<dim>-1</dim>
					<dim>5632</dim>
				</port>
			</output>
		</layer>
		<layer id="296" name="self.model.layers.0.mlp.up_proj.weight" type="Const" version="opset1">
			<data element_type="u8" shape="5632, 2048" offset="86659228" size="11534336" />
			<output>
				<port id="0" precision="U8">
					<dim>5632</dim>
					<dim>2048</dim>
				</port>
			</output>
		</layer>
		<layer id="297" name="Convert_84971" type="Convert" version="opset1">
			<data destination_type="f16" />
			<input>
				<port id="0" precision="U8">
					<dim>5632</dim>
					<dim>2048</dim>
				</port>
			</input>
			<output>
				<port id="1" precision="FP16">
					<dim>5632</dim>
					<dim>2048</dim>
				</port>
			</output>
		</layer>
		<layer id="298" name="self.model.layers.0.mlp.up_proj.weight/zero_point" type="Const" version="opset1">
			<data element_type="u8" shape="5632, 1" offset="98193564" size="5632" />
			<output>
				<port id="0" precision="U8">
					<dim>5632</dim>
					<dim>1</dim>
				</port>
			</output>
		</layer>
		<layer id="299" name="Convert_84974" type="Convert" version="opset1">
			<data destination_type="f16" />
			<input>
				<port id="0" precision="U8">
					<dim>5632</dim>
					<dim>1</dim>
				</port>
			</input>
			<output>
				<port id="1" precision="FP16">
					<dim>5632</dim>
					<dim>1</dim>
				</port>
			</output>
		</layer>
		<layer id="300" name="self.model.layers.0.mlp.up_proj.weight/zero_point/subtract" type="Subtract" version="opset1">
			<data auto_broadcast="numpy" />
			<input>
				<port id="0" precision="FP16">
					<dim>5632</dim>
					<dim>2048</dim>
				</port>
				<port id="1" precision="FP16">
					<dim>5632</dim>
					<dim>1</dim>
				</port>
			</input>
			<output>
				<port id="2" precision="FP16">
					<dim>5632</dim>
					<dim>2048</dim>
				</port>
			</output>
		</layer>
		<layer id="301" name="self.model.layers.0.mlp.up_proj.weight/scale" type="Const" version="opset1">
			<data element_type="f16" shape="5632, 1" offset="98199196" size="11264" />
			<output>
				<port id="0" precision="FP16">
					<dim>5632</dim>
					<dim>1</dim>
				</port>
			</output>
		</layer>
		<layer id="302" name="self.model.layers.0.mlp.up_proj.weight/fq_weights_1" type="Multiply" version="opset1">
			<data auto_broadcast="numpy" />
			<input>
				<port id="0" precision="FP16">
					<dim>5632</dim>
					<dim>2048</dim>
				</port>
				<port id="1" precision="FP16">
					<dim>5632</dim>
					<dim>1</dim>
				</port>
			</input>
			<output>
				<port id="2" precision="FP16">
					<dim>5632</dim>
					<dim>2048</dim>
				</port>
			</output>
		</layer>
		<layer id="303" name="self.model.layers.0.mlp.up_proj.weight/fq_weights_1/convert" type="Convert" version="opset1">
			<data destination_type="f32" />
			<input>
				<port id="0" precision="FP16">
					<dim>5632</dim>
					<dim>2048</dim>
				</port>
			</input>
			<output>
				<port id="1" precision="FP32">
					<dim>5632</dim>
					<dim>2048</dim>
				</port>
			</output>
		</layer>
		<layer id="304" name="__module.model.layers.0.mlp.up_proj/aten::linear/MatMul" type="MatMul" version="opset1">
			<data transpose_a="false" transpose_b="true" />
			<input>
				<port id="0" precision="FP32">
					<dim>-1</dim>
					<dim>-1</dim>
					<dim>2048</dim>
				</port>
				<port id="1" precision="FP32">
					<dim>5632</dim>
					<dim>2048</dim>
				</port>
			</input>
			<output>
				<port id="2" precision="FP32" names="463">
					<dim>-1</dim>
					<dim>-1</dim>
					<dim>5632</dim>
				</port>
			</output>
		</layer>
		<layer id="305" name="__module.model.layers.0.mlp/aten::mul/Multiply" type="Multiply" version="opset1">
			<data auto_broadcast="numpy" />
			<input>
				<port id="0" precision="FP32">
					<dim>-1</dim>
					<dim>-1</dim>
					<dim>5632</dim>
				</port>
				<port id="1" precision="FP32">
					<dim>-1</dim>
					<dim>-1</dim>
					<dim>5632</dim>
				</port>
			</input>
			<output>
				<port id="2" precision="FP32" names="464">
					<dim>-1</dim>
					<dim>-1</dim>
					<dim>5632</dim>
				</port>
			</output>
		</layer>
		<layer id="306" name="self.model.layers.0.mlp.down_proj.weight" type="Const" version="opset1">
			<data element_type="u8" shape="2048, 5632" offset="98210460" size="11534336" />
			<output>
				<port id="0" precision="U8">
					<dim>2048</dim>
					<dim>5632</dim>
				</port>
			</output>
		</layer>
		<layer id="307" name="Convert_93447" type="Convert" version="opset1">
			<data destination_type="f16" />
			<input>
				<port id="0" precision="U8">
					<dim>2048</dim>
					<dim>5632</dim>
				</port>
			</input>
			<output>
				<port id="1" precision="FP16">
					<dim>2048</dim>
					<dim>5632</dim>
				</port>
			</output>
		</layer>
		<layer id="308" name="self.model.layers.0.mlp.down_proj.weight/zero_point" type="Const" version="opset1">
			<data element_type="u8" shape="2048, 1" offset="109744796" size="2048" />
			<output>
				<port id="0" precision="U8">
					<dim>2048</dim>
					<dim>1</dim>
				</port>
			</output>
		</layer>
		<layer id="309" name="Convert_93450" type="Convert" version="opset1">
			<data destination_type="f16" />
			<input>
				<port id="0" precision="U8">
					<dim>2048</dim>
					<dim>1</dim>
				</port>
			</input>
			<output>
				<port id="1" precision="FP16">
					<dim>2048</dim>
					<dim>1</dim>
				</port>
			</output>
		</layer>
		<layer id="310" name="self.model.layers.0.mlp.down_proj.weight/zero_point/subtract" type="Subtract" version="opset1">
			<data auto_broadcast="numpy" />
			<input>
				<port id="0" precision="FP16">
					<dim>2048</dim>
					<dim>5632</dim>
				</port>
				<port id="1" precision="FP16">
					<dim>2048</dim>
					<dim>1</dim>
				</port>
			</input>
			<output>
				<port id="2" precision="FP16">
					<dim>2048</dim>
					<dim>5632</dim>
				</port>
			</output>
		</layer>
		<layer id="311" name="self.model.layers.0.mlp.down_proj.weight/scale" type="Const" version="opset1">
			<data element_type="f16" shape="2048, 1" offset="109746844" size="4096" />
			<output>
				<port id="0" precision="FP16">
					<dim>2048</dim>
					<dim>1</dim>
				</port>
			</output>
		</layer>
		<layer id="312" name="self.model.layers.0.mlp.down_proj.weight/fq_weights_1" type="Multiply" version="opset1">
			<data auto_broadcast="numpy" />
			<input>
				<port id="0" precision="FP16">
					<dim>2048</dim>
					<dim>5632</dim>
				</port>
				<port id="1" precision="FP16">
					<dim>2048</dim>
					<dim>1</dim>
				</port>
			</input>
			<output>
				<port id="2" precision="FP16">
					<dim>2048</dim>
					<dim>5632</dim>
				</port>
			</output>
		</layer>
		<layer id="313" name="self.model.layers.0.mlp.down_proj.weight/fq_weights_1/convert" type="Convert" version="opset1">
			<data destination_type="f32" />
			<input>
				<port id="0" precision="FP16">
					<dim>2048</dim>
					<dim>5632</dim>
				</port>
			</input>
			<output>
				<port id="1" precision="FP32">
					<dim>2048</dim>
					<dim>5632</dim>
				</port>
			</output>
		</layer>
		<layer id="314" name="__module.model.layers.0.mlp.down_proj/aten::linear/MatMul" type="MatMul" version="opset1">
			<data transpose_a="false" transpose_b="true" />
			<input>
				<port id="0" precision="FP32">
					<dim>-1</dim>
					<dim>-1</dim>
					<dim>5632</dim>
				</port>
				<port id="1" precision="FP32">
					<dim>2048</dim>
					<dim>5632</dim>
				</port>
			</input>
			<output>
				<port id="2" precision="FP32" names="466,hidden_states.27">
					<dim>-1</dim>
					<dim>-1</dim>
					<dim>2048</dim>
				</port>
			</output>
		</layer>
		<layer id="315" name="__module.model.layers.0/aten::add/Add_1" type="Add" version="opset1">
			<data auto_broadcast="numpy" />
			<input>
				<port id="0" precision="FP32">
					<dim>-1</dim>
					<dim>-1</dim>
					<dim>2048</dim>
				</port>
				<port id="1" precision="FP32">
					<dim>-1</dim>
					<dim>-1</dim>
					<dim>2048</dim>
				</port>
			</input>
			<output>
				<port id="2" precision="FP32" names="467,469,477,488,hidden_states.29,hidden_states.31">
					<dim>-1</dim>
					<dim>-1</dim>
					<dim>2048</dim>
				</port>
			</output>
		</layer>
		<layer id="316" name="Constant_52591" type="Const" version="opset1">
			<data element_type="f32" shape="1, 1, 2048" offset="109750940" size="8192" />
			<output>
				<port id="0" precision="FP32">
					<dim>1</dim>
					<dim>1</dim>
					<dim>2048</dim>
				</port>
			</output>
		</layer>
		<layer id="317" name="Constant_52590" type="Const" version="opset1">
			<data element_type="f32" shape="1, 1, 1" offset="65648412" size="4" />
			<output>
				<port id="0" precision="FP32">
					<dim>1</dim>
					<dim>1</dim>
					<dim>1</dim>
				</port>
			</output>
		</layer>
		<layer id="318" name="Constant_52588" type="Const" version="opset1">
			<data element_type="f32" shape="1, 1, 1" offset="65648416" size="4" />
			<output>
				<port id="0" precision="FP32">
					<dim>1</dim>
					<dim>1</dim>
					<dim>1</dim>
				</port>
			</output>
		</layer>
		<layer id="319" name="__module.model.layers.1.input_layernorm/aten::pow/Power" type="Power" version="opset1">
			<data auto_broadcast="numpy" />
			<input>
				<port id="0" precision="FP32">
					<dim>-1</dim>
					<dim>-1</dim>
					<dim>2048</dim>
				</port>
				<port id="1" precision="FP32">
					<dim>1</dim>
					<dim>1</dim>
					<dim>1</dim>
				</port>
			</input>
			<output>
				<port id="2" precision="FP32" names="478">
					<dim>-1</dim>
					<dim>-1</dim>
					<dim>2048</dim>
				</port>
			</output>
		</layer>
		<layer id="320" name="Constant_1700" type="Const" version="opset1">
			<data element_type="i64" shape="1" offset="65648420" size="8" />
			<output>
				<port id="0" precision="I64" names="479">
					<dim>1</dim>
				</port>
			</output>
		</layer>
		<layer id="321" name="__module.model.layers.1.input_layernorm/aten::mean/ReduceMean" type="ReduceMean" version="opset1">
			<data keep_dims="true" />
			<input>
				<port id="0" precision="FP32">
					<dim>-1</dim>
					<dim>-1</dim>
					<dim>2048</dim>
				</port>
				<port id="1" precision="I64">
					<dim>1</dim>
				</port>
			</input>
			<output>
				<port id="2" precision="FP32" names="480,variance.5">
					<dim>-1</dim>
					<dim>-1</dim>
					<dim>1</dim>
				</port>
			</output>
		</layer>
		<layer id="322" name="Constant_52589" type="Const" version="opset1">
			<data element_type="f32" shape="1, 1, 1" offset="65648428" size="4" />
			<output>
				<port id="0" precision="FP32">
					<dim>1</dim>
					<dim>1</dim>
					<dim>1</dim>
				</port>
			</output>
		</layer>
		<layer id="323" name="__module.model.layers.1.input_layernorm/aten::add/Add" type="Add" version="opset1">
			<data auto_broadcast="numpy" />
			<input>
				<port id="0" precision="FP32">
					<dim>-1</dim>
					<dim>-1</dim>
					<dim>1</dim>
				</port>
				<port id="1" precision="FP32">
					<dim>1</dim>
					<dim>1</dim>
					<dim>1</dim>
				</port>
			</input>
			<output>
				<port id="2" precision="FP32" names="481">
					<dim>-1</dim>
					<dim>-1</dim>
					<dim>1</dim>
				</port>
			</output>
		</layer>
		<layer id="324" name="__module.model.layers.1.input_layernorm/aten::rsqrt/Sqrt" type="Sqrt" version="opset1">
			<input>
				<port id="0" precision="FP32">
					<dim>-1</dim>
					<dim>-1</dim>
					<dim>1</dim>
				</port>
			</input>
			<output>
				<port id="1" precision="FP32">
					<dim>-1</dim>
					<dim>-1</dim>
					<dim>1</dim>
				</port>
			</output>
		</layer>
		<layer id="325" name="__module.model.layers.1.input_layernorm/aten::rsqrt/Divide" type="Divide" version="opset1">
			<data auto_broadcast="numpy" m_pythondiv="true" />
			<input>
				<port id="0" precision="FP32">
					<dim>1</dim>
					<dim>1</dim>
					<dim>1</dim>
				</port>
				<port id="1" precision="FP32">
					<dim>-1</dim>
					<dim>-1</dim>
					<dim>1</dim>
				</port>
			</input>
			<output>
				<port id="2" precision="FP32" names="482">
					<dim>-1</dim>
					<dim>-1</dim>
					<dim>1</dim>
				</port>
			</output>
		</layer>
		<layer id="326" name="__module.model.layers.1.input_layernorm/aten::mul/Multiply" type="Multiply" version="opset1">
			<data auto_broadcast="numpy" />
			<input>
				<port id="0" precision="FP32">
					<dim>-1</dim>
					<dim>-1</dim>
					<dim>2048</dim>
				</port>
				<port id="1" precision="FP32">
					<dim>-1</dim>
					<dim>-1</dim>
					<dim>1</dim>
				</port>
			</input>
			<output>
				<port id="2" precision="FP32" names="483,484,hidden_states.33,hidden_states.35">
					<dim>-1</dim>
					<dim>-1</dim>
					<dim>2048</dim>
				</port>
			</output>
		</layer>
		<layer id="327" name="__module.model.layers.1.input_layernorm/aten::mul/Multiply_1" type="Multiply" version="opset1">
			<data auto_broadcast="numpy" />
			<input>
				<port id="0" precision="FP32">
					<dim>1</dim>
					<dim>1</dim>
					<dim>2048</dim>
				</port>
				<port id="1" precision="FP32">
					<dim>-1</dim>
					<dim>-1</dim>
					<dim>2048</dim>
				</port>
			</input>
			<output>
				<port id="2" precision="FP32" names="485,487,hidden_states.37">
					<dim>-1</dim>
					<dim>-1</dim>
					<dim>2048</dim>
				</port>
			</output>
		</layer>
		<layer id="328" name="self.model.layers.1.self_attn.q_proj.weight" type="Const" version="opset1">
			<data element_type="u8" shape="2048, 2048" offset="109759132" size="4194304" />
			<output>
				<port id="0" precision="U8">
					<dim>2048</dim>
					<dim>2048</dim>
				</port>
			</output>
		</layer>
		<layer id="329" name="Convert_373155" type="Convert" version="opset1">
			<data destination_type="f16" />
			<input>
				<port id="0" precision="U8">
					<dim>2048</dim>
					<dim>2048</dim>
				</port>
			</input>
			<output>
				<port id="1" precision="FP16">
					<dim>2048</dim>
					<dim>2048</dim>
				</port>
			</output>
		</layer>
		<layer id="330" name="self.model.layers.1.self_attn.q_proj.weight/zero_point" type="Const" version="opset1">
			<data element_type="u8" shape="2048, 1" offset="113953436" size="2048" />
			<output>
				<port id="0" precision="U8">
					<dim>2048</dim>
					<dim>1</dim>
				</port>
			</output>
		</layer>
		<layer id="331" name="Convert_373158" type="Convert" version="opset1">
			<data destination_type="f16" />
			<input>
				<port id="0" precision="U8">
					<dim>2048</dim>
					<dim>1</dim>
				</port>
			</input>
			<output>
				<port id="1" precision="FP16">
					<dim>2048</dim>
					<dim>1</dim>
				</port>
			</output>
		</layer>
		<layer id="332" name="self.model.layers.1.self_attn.q_proj.weight/zero_point/subtract" type="Subtract" version="opset1">
			<data auto_broadcast="numpy" />
			<input>
				<port id="0" precision="FP16">
					<dim>2048</dim>
					<dim>2048</dim>
				</port>
				<port id="1" precision="FP16">
					<dim>2048</dim>
					<dim>1</dim>
				</port>
			</input>
			<output>
				<port id="2" precision="FP16">
					<dim>2048</dim>
					<dim>2048</dim>
				</port>
			</output>
		</layer>
		<layer id="333" name="self.model.layers.1.self_attn.q_proj.weight/scale" type="Const" version="opset1">
			<data element_type="f16" shape="2048, 1" offset="113955484" size="4096" />
			<output>
				<port id="0" precision="FP16">
					<dim>2048</dim>
					<dim>1</dim>
				</port>
			</output>
		</layer>
		<layer id="334" name="self.model.layers.1.self_attn.q_proj.weight/fq_weights_1" type="Multiply" version="opset1">
			<data auto_broadcast="numpy" />
			<input>
				<port id="0" precision="FP16">
					<dim>2048</dim>
					<dim>2048</dim>
				</port>
				<port id="1" precision="FP16">
					<dim>2048</dim>
					<dim>1</dim>
				</port>
			</input>
			<output>
				<port id="2" precision="FP16">
					<dim>2048</dim>
					<dim>2048</dim>
				</port>
			</output>
		</layer>
		<layer id="335" name="self.model.layers.1.self_attn.q_proj.weight/fq_weights_1/convert" type="Convert" version="opset1">
			<data destination_type="f32" />
			<input>
				<port id="0" precision="FP16">
					<dim>2048</dim>
					<dim>2048</dim>
				</port>
			</input>
			<output>
				<port id="1" precision="FP32">
					<dim>2048</dim>
					<dim>2048</dim>
				</port>
			</output>
		</layer>
		<layer id="336" name="__module.model.layers.1.self_attn.q_proj/aten::linear/MatMul" type="MatMul" version="opset1">
			<data transpose_a="false" transpose_b="true" />
			<input>
				<port id="0" precision="FP32">
					<dim>-1</dim>
					<dim>-1</dim>
					<dim>2048</dim>
				</port>
				<port id="1" precision="FP32">
					<dim>2048</dim>
					<dim>2048</dim>
				</port>
			</input>
			<output>
				<port id="2" precision="FP32" names="496">
					<dim>-1</dim>
					<dim>-1</dim>
					<dim>2048</dim>
				</port>
			</output>
		</layer>
		<layer id="337" name="Constant_59266" type="Const" version="opset1">
			<data element_type="i64" shape="4" offset="69848880" size="32" />
			<output>
				<port id="0" precision="I64">
					<dim>4</dim>
				</port>
			</output>
		</layer>
		<layer id="338" name="__module.model.layers.1.self_attn/aten::view/Reshape" type="Reshape" version="opset1">
			<data special_zero="true" />
			<input>
				<port id="0" precision="FP32">
					<dim>-1</dim>
					<dim>-1</dim>
					<dim>2048</dim>
				</port>
				<port id="1" precision="I64">
					<dim>4</dim>
				</port>
			</input>
			<output>
				<port id="2" precision="FP32" names="498">
					<dim>-1</dim>
					<dim>-1</dim>
					<dim>32</dim>
					<dim>64</dim>
				</port>
			</output>
		</layer>
		<layer id="339" name="__module.model.layers.1.self_attn/aten::transpose/Constant" type="Const" version="opset1">
			<data element_type="i32" shape="4" offset="69848912" size="16" />
			<output>
				<port id="0" precision="I32">
					<dim>4</dim>
				</port>
			</output>
		</layer>
		<layer id="340" name="__module.model.layers.1.self_attn/aten::transpose/Transpose" type="Transpose" version="opset1">
			<input>
				<port id="0" precision="FP32">
					<dim>-1</dim>
					<dim>-1</dim>
					<dim>32</dim>
					<dim>64</dim>
				</port>
				<port id="1" precision="I32">
					<dim>4</dim>
				</port>
			</input>
			<output>
				<port id="2" precision="FP32" names="499,q.3">
					<dim>-1</dim>
					<dim>32</dim>
					<dim>-1</dim>
					<dim>64</dim>
				</port>
			</output>
		</layer>
		<layer id="341" name="__module.model.layers.1.self_attn/aten::mul/Multiply" type="Multiply" version="opset1">
			<data auto_broadcast="numpy" />
			<input>
				<port id="0" precision="FP32">
					<dim>-1</dim>
					<dim>32</dim>
					<dim>-1</dim>
					<dim>64</dim>
				</port>
				<port id="1" precision="FP32">
					<dim>-1</dim>
					<dim>1</dim>
					<dim>-1</dim>
					<dim>64</dim>
				</port>
			</input>
			<output>
				<port id="2" precision="FP32" names="512">
					<dim>-1</dim>
					<dim>32</dim>
					<dim>-1</dim>
					<dim>64</dim>
				</port>
			</output>
		</layer>
		<layer id="342" name="Constant_1999" type="Const" version="opset1">
			<data element_type="i64" shape="1" offset="69849076" size="8" />
			<output>
				<port id="0" precision="I64">
					<dim>1</dim>
				</port>
			</output>
		</layer>
		<layer id="343" name="Constant_2001" type="Const" version="opset1">
			<data element_type="i64" shape="1" offset="69849084" size="8" />
			<output>
				<port id="0" precision="I64">
					<dim>1</dim>
				</port>
			</output>
		</layer>
		<layer id="344" name="Constant_2003" type="Const" version="opset1">
			<data element_type="i64" shape="1" offset="69849056" size="8" />
			<output>
				<port id="0" precision="I64">
					<dim>1</dim>
				</port>
			</output>
		</layer>
		<layer id="345" name="Constant_1955" type="Const" version="opset1">
			<data element_type="i64" shape="1" offset="69849092" size="8" />
			<output>
				<port id="0" precision="I64">
					<dim>1</dim>
				</port>
			</output>
		</layer>
		<layer id="346" name="__module.model.layers.1.self_attn/aten::slice/Slice" type="Slice" version="opset8">
			<input>
				<port id="0" precision="FP32">
					<dim>-1</dim>
					<dim>32</dim>
					<dim>-1</dim>
					<dim>64</dim>
				</port>
				<port id="1" precision="I64">
					<dim>1</dim>
				</port>
				<port id="2" precision="I64">
					<dim>1</dim>
				</port>
				<port id="3" precision="I64">
					<dim>1</dim>
				</port>
				<port id="4" precision="I64">
					<dim>1</dim>
				</port>
			</input>
			<output>
				<port id="5" precision="FP32" names="522,x2.5">
					<dim>-1</dim>
					<dim>32</dim>
					<dim>-1</dim>
					<dim>32</dim>
				</port>
			</output>
		</layer>
		<layer id="347" name="Constant_52592" type="Const" version="opset1">
			<data element_type="f32" shape="1, 1, 1, 1" offset="69849100" size="4" />
			<output>
				<port id="0" precision="FP32">
					<dim>1</dim>
					<dim>1</dim>
					<dim>1</dim>
					<dim>1</dim>
				</port>
			</output>
		</layer>
		<layer id="348" name="__module.model.layers.1.self_attn/aten::neg/Multiply" type="Multiply" version="opset1">
			<data auto_broadcast="numpy" />
			<input>
				<port id="0" precision="FP32">
					<dim>-1</dim>
					<dim>32</dim>
					<dim>-1</dim>
					<dim>32</dim>
				</port>
				<port id="1" precision="FP32">
					<dim>1</dim>
					<dim>1</dim>
					<dim>1</dim>
					<dim>1</dim>
				</port>
			</input>
			<output>
				<port id="2" precision="FP32" names="523">
					<dim>-1</dim>
					<dim>32</dim>
					<dim>-1</dim>
					<dim>32</dim>
				</port>
			</output>
		</layer>
		<layer id="349" name="Constant_1896" type="Const" version="opset1">
			<data element_type="i64" shape="1" offset="12" size="8" />
			<output>
				<port id="0" precision="I64">
					<dim>1</dim>
				</port>
			</output>
		</layer>
		<layer id="350" name="Constant_1940" type="Const" version="opset1">
			<data element_type="i64" shape="1" offset="69849076" size="8" />
			<output>
				<port id="0" precision="I64">
					<dim>1</dim>
				</port>
			</output>
		</layer>
		<layer id="351" name="Constant_1942" type="Const" version="opset1">
			<data element_type="i64" shape="1" offset="69849056" size="8" />
			<output>
				<port id="0" precision="I64">
					<dim>1</dim>
				</port>
			</output>
		</layer>
		<layer id="352" name="Constant_1894" type="Const" version="opset1">
			<data element_type="i64" shape="1" offset="69849092" size="8" />
			<output>
				<port id="0" precision="I64">
					<dim>1</dim>
				</port>
			</output>
		</layer>
		<layer id="353" name="__module.model.layers.1.self_attn/aten::slice/Slice_1" type="Slice" version="opset8">
			<input>
				<port id="0" precision="FP32">
					<dim>-1</dim>
					<dim>32</dim>
					<dim>-1</dim>
					<dim>64</dim>
				</port>
				<port id="1" precision="I64">
					<dim>1</dim>
				</port>
				<port id="2" precision="I64">
					<dim>1</dim>
				</port>
				<port id="3" precision="I64">
					<dim>1</dim>
				</port>
				<port id="4" precision="I64">
					<dim>1</dim>
				</port>
			</input>
			<output>
				<port id="5" precision="FP32" names="517">
					<dim>-1</dim>
					<dim>32</dim>
					<dim>-1</dim>
					<dim>32</dim>
				</port>
			</output>
		</layer>
		<layer id="354" name="__module.model.layers.1.self_attn/aten::cat/Concat" type="Concat" version="opset1">
			<data axis="-1" />
			<input>
				<port id="0" precision="FP32">
					<dim>-1</dim>
					<dim>32</dim>
					<dim>-1</dim>
					<dim>32</dim>
				</port>
				<port id="1" precision="FP32">
					<dim>-1</dim>
					<dim>32</dim>
					<dim>-1</dim>
					<dim>32</dim>
				</port>
			</input>
			<output>
				<port id="2" precision="FP32" names="525">
					<dim>-1</dim>
					<dim>32</dim>
					<dim>-1</dim>
					<dim>64</dim>
				</port>
			</output>
		</layer>
		<layer id="355" name="__module.model.layers.1.self_attn/aten::mul/Multiply_1" type="Multiply" version="opset1">
			<data auto_broadcast="numpy" />
			<input>
				<port id="0" precision="FP32">
					<dim>-1</dim>
					<dim>32</dim>
					<dim>-1</dim>
					<dim>64</dim>
				</port>
				<port id="1" precision="FP32">
					<dim>-1</dim>
					<dim>1</dim>
					<dim>-1</dim>
					<dim>64</dim>
				</port>
			</input>
			<output>
				<port id="2" precision="FP32" names="526">
					<dim>-1</dim>
					<dim>32</dim>
					<dim>-1</dim>
					<dim>64</dim>
				</port>
			</output>
		</layer>
		<layer id="356" name="__module.model.layers.1.self_attn/aten::add/Add" type="Add" version="opset1">
			<data auto_broadcast="numpy" />
			<input>
				<port id="0" precision="FP32">
					<dim>-1</dim>
					<dim>32</dim>
					<dim>-1</dim>
					<dim>64</dim>
				</port>
				<port id="1" precision="FP32">
					<dim>-1</dim>
					<dim>32</dim>
					<dim>-1</dim>
					<dim>64</dim>
				</port>
			</input>
			<output>
				<port id="2" precision="FP32" names="527,query.3">
					<dim>-1</dim>
					<dim>32</dim>
					<dim>-1</dim>
					<dim>64</dim>
				</port>
			</output>
		</layer>
		<layer id="357" name="ReadValue_61123" type="ReadValue" version="opset6">
			<data variable_id="past_key_values.1.keypresent.1.key" variable_type="f32" variable_shape="?,4,?,64" />
			<input>
				<port id="0" precision="FP32">
					<dim>-1</dim>
					<dim>4</dim>
					<dim>0</dim>
					<dim>64</dim>
				</port>
			</input>
			<output>
				<port id="1" precision="FP32" names="past_key_values.1.key">
					<dim>-1</dim>
					<dim>4</dim>
					<dim>-1</dim>
					<dim>64</dim>
				</port>
			</output>
		</layer>
		<layer id="358" name="Constant_60620" type="Const" version="opset1">
			<data element_type="i32" shape="" offset="0" size="4" />
			<output>
				<port id="0" precision="I32" />
			</output>
		</layer>
		<layer id="359" name="Gather_60621" type="Gather" version="opset8">
			<data batch_dims="0" />
			<input>
				<port id="0" precision="FP32">
					<dim>-1</dim>
					<dim>4</dim>
					<dim>-1</dim>
					<dim>64</dim>
				</port>
				<port id="1" precision="I32">
					<dim>-1</dim>
				</port>
				<port id="2" precision="I32" />
			</input>
			<output>
				<port id="3" precision="FP32">
					<dim>-1</dim>
					<dim>4</dim>
					<dim>-1</dim>
					<dim>64</dim>
				</port>
			</output>
		</layer>
		<layer id="360" name="self.model.layers.1.self_attn.k_proj.weight" type="Const" version="opset1">
			<data element_type="u8" shape="256, 2048" offset="113959580" size="524288" />
			<output>
				<port id="0" precision="U8">
					<dim>256</dim>
					<dim>2048</dim>
				</port>
			</output>
		</layer>
		<layer id="361" name="Convert_563865" type="Convert" version="opset1">
			<data destination_type="f16" />
			<input>
				<port id="0" precision="U8">
					<dim>256</dim>
					<dim>2048</dim>
				</port>
			</input>
			<output>
				<port id="1" precision="FP16">
					<dim>256</dim>
					<dim>2048</dim>
				</port>
			</output>
		</layer>
		<layer id="362" name="self.model.layers.1.self_attn.k_proj.weight/zero_point" type="Const" version="opset1">
			<data element_type="u8" shape="256, 1" offset="114483868" size="256" />
			<output>
				<port id="0" precision="U8">
					<dim>256</dim>
					<dim>1</dim>
				</port>
			</output>
		</layer>
		<layer id="363" name="Convert_563868" type="Convert" version="opset1">
			<data destination_type="f16" />
			<input>
				<port id="0" precision="U8">
					<dim>256</dim>
					<dim>1</dim>
				</port>
			</input>
			<output>
				<port id="1" precision="FP16">
					<dim>256</dim>
					<dim>1</dim>
				</port>
			</output>
		</layer>
		<layer id="364" name="self.model.layers.1.self_attn.k_proj.weight/zero_point/subtract" type="Subtract" version="opset1">
			<data auto_broadcast="numpy" />
			<input>
				<port id="0" precision="FP16">
					<dim>256</dim>
					<dim>2048</dim>
				</port>
				<port id="1" precision="FP16">
					<dim>256</dim>
					<dim>1</dim>
				</port>
			</input>
			<output>
				<port id="2" precision="FP16">
					<dim>256</dim>
					<dim>2048</dim>
				</port>
			</output>
		</layer>
		<layer id="365" name="self.model.layers.1.self_attn.k_proj.weight/scale" type="Const" version="opset1">
			<data element_type="f16" shape="256, 1" offset="114484124" size="512" />
			<output>
				<port id="0" precision="FP16">
					<dim>256</dim>
					<dim>1</dim>
				</port>
			</output>
		</layer>
		<layer id="366" name="self.model.layers.1.self_attn.k_proj.weight/fq_weights_1" type="Multiply" version="opset1">
			<data auto_broadcast="numpy" />
			<input>
				<port id="0" precision="FP16">
					<dim>256</dim>
					<dim>2048</dim>
				</port>
				<port id="1" precision="FP16">
					<dim>256</dim>
					<dim>1</dim>
				</port>
			</input>
			<output>
				<port id="2" precision="FP16">
					<dim>256</dim>
					<dim>2048</dim>
				</port>
			</output>
		</layer>
		<layer id="367" name="self.model.layers.1.self_attn.k_proj.weight/fq_weights_1/convert" type="Convert" version="opset1">
			<data destination_type="f32" />
			<input>
				<port id="0" precision="FP16">
					<dim>256</dim>
					<dim>2048</dim>
				</port>
			</input>
			<output>
				<port id="1" precision="FP32">
					<dim>256</dim>
					<dim>2048</dim>
				</port>
			</output>
		</layer>
		<layer id="368" name="__module.model.layers.1.self_attn.k_proj/aten::linear/MatMul" type="MatMul" version="opset1">
			<data transpose_a="false" transpose_b="true" />
			<input>
				<port id="0" precision="FP32">
					<dim>-1</dim>
					<dim>-1</dim>
					<dim>2048</dim>
				</port>
				<port id="1" precision="FP32">
					<dim>256</dim>
					<dim>2048</dim>
				</port>
			</input>
			<output>
				<port id="2" precision="FP32" names="501">
					<dim>-1</dim>
					<dim>-1</dim>
					<dim>256</dim>
				</port>
			</output>
		</layer>
		<layer id="369" name="Constant_59267" type="Const" version="opset1">
			<data element_type="i64" shape="4" offset="70374160" size="32" />
			<output>
				<port id="0" precision="I64">
					<dim>4</dim>
				</port>
			</output>
		</layer>
		<layer id="370" name="__module.model.layers.1.self_attn/aten::view/Reshape_1" type="Reshape" version="opset1">
			<data special_zero="true" />
			<input>
				<port id="0" precision="FP32">
					<dim>-1</dim>
					<dim>-1</dim>
					<dim>256</dim>
				</port>
				<port id="1" precision="I64">
					<dim>4</dim>
				</port>
			</input>
			<output>
				<port id="2" precision="FP32" names="503">
					<dim>-1</dim>
					<dim>-1</dim>
					<dim>4</dim>
					<dim>64</dim>
				</port>
			</output>
		</layer>
		<layer id="371" name="__module.model.layers.1.self_attn/aten::transpose/Constant_1" type="Const" version="opset1">
			<data element_type="i32" shape="4" offset="69848912" size="16" />
			<output>
				<port id="0" precision="I32">
					<dim>4</dim>
				</port>
			</output>
		</layer>
		<layer id="372" name="__module.model.layers.1.self_attn/aten::transpose/Transpose_1" type="Transpose" version="opset1">
			<input>
				<port id="0" precision="FP32">
					<dim>-1</dim>
					<dim>-1</dim>
					<dim>4</dim>
					<dim>64</dim>
				</port>
				<port id="1" precision="I32">
					<dim>4</dim>
				</port>
			</input>
			<output>
				<port id="2" precision="FP32" names="504,k.3">
					<dim>-1</dim>
					<dim>4</dim>
					<dim>-1</dim>
					<dim>64</dim>
				</port>
			</output>
		</layer>
		<layer id="373" name="__module.model.layers.1.self_attn/aten::mul/Multiply_2" type="Multiply" version="opset1">
			<data auto_broadcast="numpy" />
			<input>
				<port id="0" precision="FP32">
					<dim>-1</dim>
					<dim>4</dim>
					<dim>-1</dim>
					<dim>64</dim>
				</port>
				<port id="1" precision="FP32">
					<dim>-1</dim>
					<dim>1</dim>
					<dim>-1</dim>
					<dim>64</dim>
				</port>
			</input>
			<output>
				<port id="2" precision="FP32" names="528">
					<dim>-1</dim>
					<dim>4</dim>
					<dim>-1</dim>
					<dim>64</dim>
				</port>
			</output>
		</layer>
		<layer id="374" name="Constant_2142" type="Const" version="opset1">
			<data element_type="i64" shape="1" offset="69849076" size="8" />
			<output>
				<port id="0" precision="I64">
					<dim>1</dim>
				</port>
			</output>
		</layer>
		<layer id="375" name="Constant_2144" type="Const" version="opset1">
			<data element_type="i64" shape="1" offset="69849084" size="8" />
			<output>
				<port id="0" precision="I64">
					<dim>1</dim>
				</port>
			</output>
		</layer>
		<layer id="376" name="Constant_2146" type="Const" version="opset1">
			<data element_type="i64" shape="1" offset="69849056" size="8" />
			<output>
				<port id="0" precision="I64">
					<dim>1</dim>
				</port>
			</output>
		</layer>
		<layer id="377" name="Constant_2098" type="Const" version="opset1">
			<data element_type="i64" shape="1" offset="69849092" size="8" />
			<output>
				<port id="0" precision="I64">
					<dim>1</dim>
				</port>
			</output>
		</layer>
		<layer id="378" name="__module.model.layers.1.self_attn/aten::slice/Slice_2" type="Slice" version="opset8">
			<input>
				<port id="0" precision="FP32">
					<dim>-1</dim>
					<dim>4</dim>
					<dim>-1</dim>
					<dim>64</dim>
				</port>
				<port id="1" precision="I64">
					<dim>1</dim>
				</port>
				<port id="2" precision="I64">
					<dim>1</dim>
				</port>
				<port id="3" precision="I64">
					<dim>1</dim>
				</port>
				<port id="4" precision="I64">
					<dim>1</dim>
				</port>
			</input>
			<output>
				<port id="5" precision="FP32" names="538,x2.7">
					<dim>-1</dim>
					<dim>4</dim>
					<dim>-1</dim>
					<dim>32</dim>
				</port>
			</output>
		</layer>
		<layer id="379" name="Constant_52593" type="Const" version="opset1">
			<data element_type="f32" shape="1, 1, 1, 1" offset="69849100" size="4" />
			<output>
				<port id="0" precision="FP32">
					<dim>1</dim>
					<dim>1</dim>
					<dim>1</dim>
					<dim>1</dim>
				</port>
			</output>
		</layer>
		<layer id="380" name="__module.model.layers.1.self_attn/aten::neg/Multiply_1" type="Multiply" version="opset1">
			<data auto_broadcast="numpy" />
			<input>
				<port id="0" precision="FP32">
					<dim>-1</dim>
					<dim>4</dim>
					<dim>-1</dim>
					<dim>32</dim>
				</port>
				<port id="1" precision="FP32">
					<dim>1</dim>
					<dim>1</dim>
					<dim>1</dim>
					<dim>1</dim>
				</port>
			</input>
			<output>
				<port id="2" precision="FP32" names="539">
					<dim>-1</dim>
					<dim>4</dim>
					<dim>-1</dim>
					<dim>32</dim>
				</port>
			</output>
		</layer>
		<layer id="381" name="Constant_2039" type="Const" version="opset1">
			<data element_type="i64" shape="1" offset="12" size="8" />
			<output>
				<port id="0" precision="I64">
					<dim>1</dim>
				</port>
			</output>
		</layer>
		<layer id="382" name="Constant_2083" type="Const" version="opset1">
			<data element_type="i64" shape="1" offset="69849076" size="8" />
			<output>
				<port id="0" precision="I64">
					<dim>1</dim>
				</port>
			</output>
		</layer>
		<layer id="383" name="Constant_2085" type="Const" version="opset1">
			<data element_type="i64" shape="1" offset="69849056" size="8" />
			<output>
				<port id="0" precision="I64">
					<dim>1</dim>
				</port>
			</output>
		</layer>
		<layer id="384" name="Constant_2037" type="Const" version="opset1">
			<data element_type="i64" shape="1" offset="69849092" size="8" />
			<output>
				<port id="0" precision="I64">
					<dim>1</dim>
				</port>
			</output>
		</layer>
		<layer id="385" name="__module.model.layers.1.self_attn/aten::slice/Slice_3" type="Slice" version="opset8">
			<input>
				<port id="0" precision="FP32">
					<dim>-1</dim>
					<dim>4</dim>
					<dim>-1</dim>
					<dim>64</dim>
				</port>
				<port id="1" precision="I64">
					<dim>1</dim>
				</port>
				<port id="2" precision="I64">
					<dim>1</dim>
				</port>
				<port id="3" precision="I64">
					<dim>1</dim>
				</port>
				<port id="4" precision="I64">
					<dim>1</dim>
				</port>
			</input>
			<output>
				<port id="5" precision="FP32" names="533">
					<dim>-1</dim>
					<dim>4</dim>
					<dim>-1</dim>
					<dim>32</dim>
				</port>
			</output>
		</layer>
		<layer id="386" name="__module.model.layers.1.self_attn/aten::cat/Concat_1" type="Concat" version="opset1">
			<data axis="-1" />
			<input>
				<port id="0" precision="FP32">
					<dim>-1</dim>
					<dim>4</dim>
					<dim>-1</dim>
					<dim>32</dim>
				</port>
				<port id="1" precision="FP32">
					<dim>-1</dim>
					<dim>4</dim>
					<dim>-1</dim>
					<dim>32</dim>
				</port>
			</input>
			<output>
				<port id="2" precision="FP32" names="541">
					<dim>-1</dim>
					<dim>4</dim>
					<dim>-1</dim>
					<dim>64</dim>
				</port>
			</output>
		</layer>
		<layer id="387" name="__module.model.layers.1.self_attn/aten::mul/Multiply_3" type="Multiply" version="opset1">
			<data auto_broadcast="numpy" />
			<input>
				<port id="0" precision="FP32">
					<dim>-1</dim>
					<dim>4</dim>
					<dim>-1</dim>
					<dim>64</dim>
				</port>
				<port id="1" precision="FP32">
					<dim>-1</dim>
					<dim>1</dim>
					<dim>-1</dim>
					<dim>64</dim>
				</port>
			</input>
			<output>
				<port id="2" precision="FP32" names="542">
					<dim>-1</dim>
					<dim>4</dim>
					<dim>-1</dim>
					<dim>64</dim>
				</port>
			</output>
		</layer>
		<layer id="388" name="__module.model.layers.1.self_attn/aten::add/Add_1" type="Add" version="opset1">
			<data auto_broadcast="numpy" />
			<input>
				<port id="0" precision="FP32">
					<dim>-1</dim>
					<dim>4</dim>
					<dim>-1</dim>
					<dim>64</dim>
				</port>
				<port id="1" precision="FP32">
					<dim>-1</dim>
					<dim>4</dim>
					<dim>-1</dim>
					<dim>64</dim>
				</port>
			</input>
			<output>
				<port id="2" precision="FP32" names="543">
					<dim>-1</dim>
					<dim>4</dim>
					<dim>-1</dim>
					<dim>64</dim>
				</port>
			</output>
		</layer>
		<layer id="389" name="__module.model.layers.1.self_attn/aten::cat/Concat_2" type="Concat" version="opset1">
			<data axis="-2" />
			<input>
				<port id="0" precision="FP32">
					<dim>-1</dim>
					<dim>4</dim>
					<dim>-1</dim>
					<dim>64</dim>
				</port>
				<port id="1" precision="FP32">
					<dim>-1</dim>
					<dim>4</dim>
					<dim>-1</dim>
					<dim>64</dim>
				</port>
			</input>
			<output>
				<port id="2" precision="FP32" names="553,554,hidden_states.39">
					<dim>-1</dim>
					<dim>4</dim>
					<dim>-1</dim>
					<dim>64</dim>
				</port>
			</output>
		</layer>
		<layer id="390" name="__module.model.layers.1.self_attn/aten::unsqueeze/Unsqueeze_2" type="Unsqueeze" version="opset1">
			<input>
				<port id="0" precision="FP32">
					<dim>-1</dim>
					<dim>4</dim>
					<dim>-1</dim>
					<dim>64</dim>
				</port>
				<port id="1" precision="I64" />
			</input>
			<output>
				<port id="2" precision="FP32" names="555,556,557">
					<dim>-1</dim>
					<dim>4</dim>
					<dim>1</dim>
					<dim>-1</dim>
					<dim>64</dim>
				</port>
			</output>
		</layer>
		<layer id="391" name="__module.model.layers.1.self_attn/aten::expand/Broadcast" type="Broadcast" version="opset3">
			<data mode="bidirectional" />
			<input>
				<port id="0" precision="FP32">
					<dim>-1</dim>
					<dim>4</dim>
					<dim>1</dim>
					<dim>-1</dim>
					<dim>64</dim>
				</port>
				<port id="1" precision="I64">
					<dim>5</dim>
				</port>
			</input>
			<output>
				<port id="2" precision="FP32" names="559,hidden_states.41">
					<dim>-1</dim>
					<dim>4</dim>
					<dim>8</dim>
					<dim>-1</dim>
					<dim>64</dim>
				</port>
			</output>
		</layer>
		<layer id="392" name="Constant_59268" type="Const" version="opset1">
			<data element_type="i64" shape="4" offset="70374224" size="32" />
			<output>
				<port id="0" precision="I64">
					<dim>4</dim>
				</port>
			</output>
		</layer>
		<layer id="393" name="__module.model.layers.1.self_attn/aten::reshape/Reshape" type="Reshape" version="opset1">
			<data special_zero="true" />
			<input>
				<port id="0" precision="FP32">
					<dim>-1</dim>
					<dim>4</dim>
					<dim>8</dim>
					<dim>-1</dim>
					<dim>64</dim>
				</port>
				<port id="1" precision="I64">
					<dim>4</dim>
				</port>
			</input>
			<output>
				<port id="2" precision="FP32" names="563,key.3">
					<dim>-1</dim>
					<dim>32</dim>
					<dim>-1</dim>
					<dim>64</dim>
				</port>
			</output>
		</layer>
		<layer id="394" name="ReadValue_61125" type="ReadValue" version="opset6">
…
		<edge from-layer="2971" from-port="0" to-layer="2972" to-port="1" />
		<edge from-layer="2972" from-port="2" to-layer="2973" to-port="0" />
		<edge from-layer="2973" from-port="1" to-layer="2974" to-port="1" />
		<edge from-layer="2974" from-port="2" to-layer="2975" to-port="1" />
		<edge from-layer="2975" from-port="2" to-layer="2976" to-port="1" />
		<edge from-layer="2976" from-port="2" to-layer="2985" to-port="0" />
		<edge from-layer="2976" from-port="2" to-layer="3017" to-port="0" />
		<edge from-layer="2976" from-port="2" to-layer="3054" to-port="0" />
		<edge from-layer="2977" from-port="0" to-layer="2978" to-port="0" />
		<edge from-layer="2978" from-port="1" to-layer="2981" to-port="0" />
		<edge from-layer="2979" from-port="0" to-layer="2980" to-port="0" />
		<edge from-layer="2980" from-port="1" to-layer="2981" to-port="1" />
		<edge from-layer="2981" from-port="2" to-layer="2983" to-port="0" />
		<edge from-layer="2982" from-port="0" to-layer="2983" to-port="1" />
		<edge from-layer="2983" from-port="2" to-layer="2984" to-port="0" />
		<edge from-layer="2984" from-port="1" to-layer="2985" to-port="1" />
		<edge from-layer="2985" from-port="2" to-layer="2987" to-port="0" />
		<edge from-layer="2986" from-port="0" to-layer="2987" to-port="1" />
		<edge from-layer="2987" from-port="2" to-layer="2989" to-port="0" />
		<edge from-layer="2988" from-port="0" to-layer="2989" to-port="1" />
		<edge from-layer="2989" from-port="2" to-layer="3002" to-port="0" />
		<edge from-layer="2989" from-port="2" to-layer="2990" to-port="0" />
		<edge from-layer="2989" from-port="2" to-layer="2995" to-port="0" />
		<edge from-layer="2990" from-port="2" to-layer="3005" to-port="0" />
		<edge from-layer="2991" from-port="0" to-layer="2995" to-port="1" />
		<edge from-layer="2992" from-port="0" to-layer="2995" to-port="2" />
		<edge from-layer="2993" from-port="0" to-layer="2995" to-port="3" />
		<edge from-layer="2994" from-port="0" to-layer="2995" to-port="4" />
		<edge from-layer="2995" from-port="5" to-layer="2997" to-port="0" />
		<edge from-layer="2996" from-port="0" to-layer="2997" to-port="1" />
		<edge from-layer="2997" from-port="2" to-layer="3003" to-port="0" />
		<edge from-layer="2998" from-port="0" to-layer="3002" to-port="1" />
		<edge from-layer="2999" from-port="0" to-layer="3002" to-port="2" />
		<edge from-layer="3000" from-port="0" to-layer="3002" to-port="3" />
		<edge from-layer="3001" from-port="0" to-layer="3002" to-port="4" />
		<edge from-layer="3002" from-port="5" to-layer="3003" to-port="1" />
		<edge from-layer="3003" from-port="2" to-layer="3004" to-port="0" />
		<edge from-layer="3004" from-port="2" to-layer="3005" to-port="1" />
		<edge from-layer="3005" from-port="2" to-layer="3064" to-port="0" />
		<edge from-layer="3006" from-port="1" to-layer="3008" to-port="0" />
		<edge from-layer="3007" from-port="0" to-layer="3008" to-port="2" />
		<edge from-layer="3008" from-port="3" to-layer="3038" to-port="0" />
		<edge from-layer="3009" from-port="0" to-layer="3010" to-port="0" />
		<edge from-layer="3010" from-port="1" to-layer="3013" to-port="0" />
		<edge from-layer="3011" from-port="0" to-layer="3012" to-port="0" />
		<edge from-layer="3012" from-port="1" to-layer="3013" to-port="1" />
		<edge from-layer="3013" from-port="2" to-layer="3015" to-port="0" />
		<edge from-layer="3014" from-port="0" to-layer="3015" to-port="1" />
		<edge from-layer="3015" from-port="2" to-layer="3016" to-port="0" />
		<edge from-layer="3016" from-port="1" to-layer="3017" to-port="1" />
		<edge from-layer="3017" from-port="2" to-layer="3019" to-port="0" />
		<edge from-layer="3018" from-port="0" to-layer="3019" to-port="1" />
		<edge from-layer="3019" from-port="2" to-layer="3021" to-port="0" />
		<edge from-layer="3020" from-port="0" to-layer="3021" to-port="1" />
		<edge from-layer="3021" from-port="2" to-layer="3022" to-port="0" />
		<edge from-layer="3021" from-port="2" to-layer="3027" to-port="0" />
		<edge from-layer="3021" from-port="2" to-layer="3034" to-port="0" />
		<edge from-layer="3022" from-port="2" to-layer="3037" to-port="0" />
		<edge from-layer="3023" from-port="0" to-layer="3027" to-port="1" />
		<edge from-layer="3024" from-port="0" to-layer="3027" to-port="2" />
		<edge from-layer="3025" from-port="0" to-layer="3027" to-port="3" />
		<edge from-layer="3026" from-port="0" to-layer="3027" to-port="4" />
		<edge from-layer="3027" from-port="5" to-layer="3029" to-port="0" />
		<edge from-layer="3028" from-port="0" to-layer="3029" to-port="1" />
		<edge from-layer="3029" from-port="2" to-layer="3035" to-port="0" />
		<edge from-layer="3030" from-port="0" to-layer="3034" to-port="1" />
		<edge from-layer="3031" from-port="0" to-layer="3034" to-port="2" />
		<edge from-layer="3032" from-port="0" to-layer="3034" to-port="3" />
		<edge from-layer="3033" from-port="0" to-layer="3034" to-port="4" />
		<edge from-layer="3034" from-port="5" to-layer="3035" to-port="1" />
		<edge from-layer="3035" from-port="2" to-layer="3036" to-port="0" />
		<edge from-layer="3036" from-port="2" to-layer="3037" to-port="1" />
		<edge from-layer="3037" from-port="2" to-layer="3038" to-port="1" />
		<edge from-layer="3038" from-port="2" to-layer="3039" to-port="0" />
		<edge from-layer="3038" from-port="2" to-layer="3497" to-port="0" />
		<edge from-layer="3039" from-port="2" to-layer="3040" to-port="0" />
		<edge from-layer="3040" from-port="2" to-layer="3042" to-port="0" />
		<edge from-layer="3041" from-port="0" to-layer="3042" to-port="1" />
		<edge from-layer="3042" from-port="2" to-layer="3064" to-port="1" />
		<edge from-layer="3043" from-port="1" to-layer="3045" to-port="0" />
		<edge from-layer="3044" from-port="0" to-layer="3045" to-port="2" />
		<edge from-layer="3045" from-port="3" to-layer="3059" to-port="0" />
		<edge from-layer="3046" from-port="0" to-layer="3047" to-port="0" />
		<edge from-layer="3047" from-port="1" to-layer="3050" to-port="0" />
		<edge from-layer="3048" from-port="0" to-layer="3049" to-port="0" />
		<edge from-layer="3049" from-port="1" to-layer="3050" to-port="1" />
		<edge from-layer="3050" from-port="2" to-layer="3052" to-port="0" />
		<edge from-layer="3051" from-port="0" to-layer="3052" to-port="1" />
		<edge from-layer="3052" from-port="2" to-layer="3053" to-port="0" />
		<edge from-layer="3053" from-port="1" to-layer="3054" to-port="1" />
		<edge from-layer="3054" from-port="2" to-layer="3056" to-port="0" />
		<edge from-layer="3055" from-port="0" to-layer="3056" to-port="1" />
		<edge from-layer="3056" from-port="2" to-layer="3058" to-port="0" />
		<edge from-layer="3057" from-port="0" to-layer="3058" to-port="1" />
		<edge from-layer="3058" from-port="2" to-layer="3059" to-port="1" />
		<edge from-layer="3059" from-port="2" to-layer="3496" to-port="0" />
		<edge from-layer="3059" from-port="2" to-layer="3060" to-port="0" />
		<edge from-layer="3060" from-port="2" to-layer="3061" to-port="0" />
		<edge from-layer="3061" from-port="2" to-layer="3063" to-port="0" />
		<edge from-layer="3062" from-port="0" to-layer="3063" to-port="1" />
		<edge from-layer="3063" from-port="2" to-layer="3064" to-port="2" />
		<edge from-layer="3064" from-port="5" to-layer="3066" to-port="0" />
		<edge from-layer="3065" from-port="0" to-layer="3066" to-port="1" />
		<edge from-layer="3066" from-port="2" to-layer="3067" to-port="0" />
		<edge from-layer="3067" from-port="2" to-layer="3076" to-port="0" />
		<edge from-layer="3068" from-port="0" to-layer="3069" to-port="0" />
		<edge from-layer="3069" from-port="1" to-layer="3072" to-port="0" />
		<edge from-layer="3070" from-port="0" to-layer="3071" to-port="0" />
		<edge from-layer="3071" from-port="1" to-layer="3072" to-port="1" />
		<edge from-layer="3072" from-port="2" to-layer="3074" to-port="0" />
		<edge from-layer="3073" from-port="0" to-layer="3074" to-port="1" />
		<edge from-layer="3074" from-port="2" to-layer="3075" to-port="0" />
		<edge from-layer="3075" from-port="1" to-layer="3076" to-port="1" />
		<edge from-layer="3076" from-port="2" to-layer="3077" to-port="1" />
		<edge from-layer="3077" from-port="2" to-layer="3088" to-port="0" />
		<edge from-layer="3077" from-port="2" to-layer="3081" to-port="0" />
		<edge from-layer="3077" from-port="2" to-layer="3119" to-port="0" />
		<edge from-layer="3078" from-port="0" to-layer="3089" to-port="0" />
		<edge from-layer="3079" from-port="0" to-layer="3087" to-port="0" />
		<edge from-layer="3080" from-port="0" to-layer="3081" to-port="1" />
		<edge from-layer="3081" from-port="2" to-layer="3083" to-port="0" />
		<edge from-layer="3082" from-port="0" to-layer="3083" to-port="1" />
		<edge from-layer="3083" from-port="2" to-layer="3085" to-port="0" />
		<edge from-layer="3084" from-port="0" to-layer="3085" to-port="1" />
		<edge from-layer="3085" from-port="2" to-layer="3086" to-port="0" />
		<edge from-layer="3086" from-port="1" to-layer="3087" to-port="1" />
		<edge from-layer="3087" from-port="2" to-layer="3088" to-port="1" />
		<edge from-layer="3088" from-port="2" to-layer="3089" to-port="1" />
		<edge from-layer="3089" from-port="2" to-layer="3098" to-port="0" />
		<edge from-layer="3089" from-port="2" to-layer="3108" to-port="0" />
		<edge from-layer="3090" from-port="0" to-layer="3091" to-port="0" />
		<edge from-layer="3091" from-port="1" to-layer="3094" to-port="0" />
		<edge from-layer="3092" from-port="0" to-layer="3093" to-port="0" />
		<edge from-layer="3093" from-port="1" to-layer="3094" to-port="1" />
		<edge from-layer="3094" from-port="2" to-layer="3096" to-port="0" />
		<edge from-layer="3095" from-port="0" to-layer="3096" to-port="1" />
		<edge from-layer="3096" from-port="2" to-layer="3097" to-port="0" />
		<edge from-layer="3097" from-port="1" to-layer="3098" to-port="1" />
		<edge from-layer="3098" from-port="2" to-layer="3099" to-port="0" />
		<edge from-layer="3099" from-port="1" to-layer="3109" to-port="0" />
		<edge from-layer="3100" from-port="0" to-layer="3101" to-port="0" />
		<edge from-layer="3101" from-port="1" to-layer="3104" to-port="0" />
		<edge from-layer="3102" from-port="0" to-layer="3103" to-port="0" />
		<edge from-layer="3103" from-port="1" to-layer="3104" to-port="1" />
		<edge from-layer="3104" from-port="2" to-layer="3106" to-port="0" />
		<edge from-layer="3105" from-port="0" to-layer="3106" to-port="1" />
		<edge from-layer="3106" from-port="2" to-layer="3107" to-port="0" />
		<edge from-layer="3107" from-port="1" to-layer="3108" to-port="1" />
		<edge from-layer="3108" from-port="2" to-layer="3109" to-port="1" />
		<edge from-layer="3109" from-port="2" to-layer="3118" to-port="0" />
		<edge from-layer="3110" from-port="0" to-layer="3111" to-port="0" />
		<edge from-layer="3111" from-port="1" to-layer="3114" to-port="0" />
		<edge from-layer="3112" from-port="0" to-layer="3113" to-port="0" />
		<edge from-layer="3113" from-port="1" to-layer="3114" to-port="1" />
		<edge from-layer="3114" from-port="2" to-layer="3116" to-port="0" />
		<edge from-layer="3115" from-port="0" to-layer="3116" to-port="1" />
		<edge from-layer="3116" from-port="2" to-layer="3117" to-port="0" />
		<edge from-layer="3117" from-port="1" to-layer="3118" to-port="1" />
		<edge from-layer="3118" from-port="2" to-layer="3119" to-port="1" />
		<edge from-layer="3119" from-port="2" to-layer="3232" to-port="0" />
		<edge from-layer="3119" from-port="2" to-layer="3130" to-port="0" />
		<edge from-layer="3119" from-port="2" to-layer="3123" to-port="0" />
		<edge from-layer="3120" from-port="0" to-layer="3131" to-port="0" />
		<edge from-layer="3121" from-port="0" to-layer="3129" to-port="0" />
		<edge from-layer="3122" from-port="0" to-layer="3123" to-port="1" />
		<edge from-layer="3123" from-port="2" to-layer="3125" to-port="0" />
		<edge from-layer="3124" from-port="0" to-layer="3125" to-port="1" />
		<edge from-layer="3125" from-port="2" to-layer="3127" to-port="0" />
		<edge from-layer="3126" from-port="0" to-layer="3127" to-port="1" />
		<edge from-layer="3127" from-port="2" to-layer="3128" to-port="0" />
		<edge from-layer="3128" from-port="1" to-layer="3129" to-port="1" />
		<edge from-layer="3129" from-port="2" to-layer="3130" to-port="1" />
		<edge from-layer="3130" from-port="2" to-layer="3131" to-port="1" />
		<edge from-layer="3131" from-port="2" to-layer="3140" to-port="0" />
		<edge from-layer="3131" from-port="2" to-layer="3209" to-port="0" />
		<edge from-layer="3131" from-port="2" to-layer="3172" to-port="0" />
		<edge from-layer="3132" from-port="0" to-layer="3133" to-port="0" />
		<edge from-layer="3133" from-port="1" to-layer="3136" to-port="0" />
		<edge from-layer="3134" from-port="0" to-layer="3135" to-port="0" />
		<edge from-layer="3135" from-port="1" to-layer="3136" to-port="1" />
		<edge from-layer="3136" from-port="2" to-layer="3138" to-port="0" />
		<edge from-layer="3137" from-port="0" to-layer="3138" to-port="1" />
		<edge from-layer="3138" from-port="2" to-layer="3139" to-port="0" />
		<edge from-layer="3139" from-port="1" to-layer="3140" to-port="1" />
		<edge from-layer="3140" from-port="2" to-layer="3142" to-port="0" />
		<edge from-layer="3141" from-port="0" to-layer="3142" to-port="1" />
		<edge from-layer="3142" from-port="2" to-layer="3144" to-port="0" />
		<edge from-layer="3143" from-port="0" to-layer="3144" to-port="1" />
		<edge from-layer="3144" from-port="2" to-layer="3150" to-port="0" />
		<edge from-layer="3144" from-port="2" to-layer="3157" to-port="0" />
		<edge from-layer="3144" from-port="2" to-layer="3145" to-port="0" />
		<edge from-layer="3145" from-port="2" to-layer="3160" to-port="0" />
		<edge from-layer="3146" from-port="0" to-layer="3150" to-port="1" />
		<edge from-layer="3147" from-port="0" to-layer="3150" to-port="2" />
		<edge from-layer="3148" from-port="0" to-layer="3150" to-port="3" />
		<edge from-layer="3149" from-port="0" to-layer="3150" to-port="4" />
		<edge from-layer="3150" from-port="5" to-layer="3152" to-port="0" />
		<edge from-layer="3151" from-port="0" to-layer="3152" to-port="1" />
		<edge from-layer="3152" from-port="2" to-layer="3158" to-port="0" />
		<edge from-layer="3153" from-port="0" to-layer="3157" to-port="1" />
		<edge from-layer="3154" from-port="0" to-layer="3157" to-port="2" />
		<edge from-layer="3155" from-port="0" to-layer="3157" to-port="3" />
		<edge from-layer="3156" from-port="0" to-layer="3157" to-port="4" />
		<edge from-layer="3157" from-port="5" to-layer="3158" to-port="1" />
		<edge from-layer="3158" from-port="2" to-layer="3159" to-port="0" />
		<edge from-layer="3159" from-port="2" to-layer="3160" to-port="1" />
		<edge from-layer="3160" from-port="2" to-layer="3219" to-port="0" />
		<edge from-layer="3161" from-port="1" to-layer="3163" to-port="0" />
		<edge from-layer="3162" from-port="0" to-layer="3163" to-port="2" />
		<edge from-layer="3163" from-port="3" to-layer="3193" to-port="0" />
		<edge from-layer="3164" from-port="0" to-layer="3165" to-port="0" />
		<edge from-layer="3165" from-port="1" to-layer="3168" to-port="0" />
		<edge from-layer="3166" from-port="0" to-layer="3167" to-port="0" />
		<edge from-layer="3167" from-port="1" to-layer="3168" to-port="1" />
		<edge from-layer="3168" from-port="2" to-layer="3170" to-port="0" />
		<edge from-layer="3169" from-port="0" to-layer="3170" to-port="1" />
		<edge from-layer="3170" from-port="2" to-layer="3171" to-port="0" />
		<edge from-layer="3171" from-port="1" to-layer="3172" to-port="1" />
		<edge from-layer="3172" from-port="2" to-layer="3174" to-port="0" />
		<edge from-layer="3173" from-port="0" to-layer="3174" to-port="1" />
		<edge from-layer="3174" from-port="2" to-layer="3176" to-port="0" />
		<edge from-layer="3175" from-port="0" to-layer="3176" to-port="1" />
		<edge from-layer="3176" from-port="2" to-layer="3177" to-port="0" />
		<edge from-layer="3176" from-port="2" to-layer="3182" to-port="0" />
		<edge from-layer="3176" from-port="2" to-layer="3189" to-port="0" />
		<edge from-layer="3177" from-port="2" to-layer="3192" to-port="0" />
		<edge from-layer="3178" from-port="0" to-layer="3182" to-port="1" />
		<edge from-layer="3179" from-port="0" to-layer="3182" to-port="2" />
		<edge from-layer="3180" from-port="0" to-layer="3182" to-port="3" />
		<edge from-layer="3181" from-port="0" to-layer="3182" to-port="4" />
		<edge from-layer="3182" from-port="5" to-layer="3184" to-port="0" />
		<edge from-layer="3183" from-port="0" to-layer="3184" to-port="1" />
		<edge from-layer="3184" from-port="2" to-layer="3190" to-port="0" />
		<edge from-layer="3185" from-port="0" to-layer="3189" to-port="1" />
		<edge from-layer="3186" from-port="0" to-layer="3189" to-port="2" />
		<edge from-layer="3187" from-port="0" to-layer="3189" to-port="3" />
		<edge from-layer="3188" from-port="0" to-layer="3189" to-port="4" />
		<edge from-layer="3189" from-port="5" to-layer="3190" to-port="1" />
		<edge from-layer="3190" from-port="2" to-layer="3191" to-port="0" />
		<edge from-layer="3191" from-port="2" to-layer="3192" to-port="1" />
		<edge from-layer="3192" from-port="2" to-layer="3193" to-port="1" />
		<edge from-layer="3193" from-port="2" to-layer="3194" to-port="0" />
		<edge from-layer="3193" from-port="2" to-layer="3495" to-port="0" />
		<edge from-layer="3194" from-port="2" to-layer="3195" to-port="0" />
		<edge from-layer="3195" from-port="2" to-layer="3197" to-port="0" />
		<edge from-layer="3196" from-port="0" to-layer="3197" to-port="1" />
		<edge from-layer="3197" from-port="2" to-layer="3219" to-port="1" />
		<edge from-layer="3198" from-port="1" to-layer="3200" to-port="0" />
		<edge from-layer="3199" from-port="0" to-layer="3200" to-port="2" />
		<edge from-layer="3200" from-port="3" to-layer="3214" to-port="0" />
		<edge from-layer="3201" from-port="0" to-layer="3202" to-port="0" />
		<edge from-layer="3202" from-port="1" to-layer="3205" to-port="0" />
		<edge from-layer="3203" from-port="0" to-layer="3204" to-port="0" />
		<edge from-layer="3204" from-port="1" to-layer="3205" to-port="1" />
		<edge from-layer="3205" from-port="2" to-layer="3207" to-port="0" />
		<edge from-layer="3206" from-port="0" to-layer="3207" to-port="1" />
		<edge from-layer="3207" from-port="2" to-layer="3208" to-port="0" />
		<edge from-layer="3208" from-port="1" to-layer="3209" to-port="1" />
		<edge from-layer="3209" from-port="2" to-layer="3211" to-port="0" />
		<edge from-layer="3210" from-port="0" to-layer="3211" to-port="1" />
		<edge from-layer="3211" from-port="2" to-layer="3213" to-port="0" />
		<edge from-layer="3212" from-port="0" to-layer="3213" to-port="1" />
		<edge from-layer="3213" from-port="2" to-layer="3214" to-port="1" />
		<edge from-layer="3214" from-port="2" to-layer="3215" to-port="0" />
		<edge from-layer="3214" from-port="2" to-layer="3494" to-port="0" />
		<edge from-layer="3215" from-port="2" to-layer="3216" to-port="0" />
		<edge from-layer="3216" from-port="2" to-layer="3218" to-port="0" />
		<edge from-layer="3217" from-port="0" to-layer="3218" to-port="1" />
		<edge from-layer="3218" from-port="2" to-layer="3219" to-port="2" />
		<edge from-layer="3219" from-port="5" to-layer="3221" to-port="0" />
		<edge from-layer="3220" from-port="0" to-layer="3221" to-port="1" />
		<edge from-layer="3221" from-port="2" to-layer="3222" to-port="0" />
		<edge from-layer="3222" from-port="2" to-layer="3231" to-port="0" />
		<edge from-layer="3223" from-port="0" to-layer="3224" to-port="0" />
		<edge from-layer="3224" from-port="1" to-layer="3227" to-port="0" />
		<edge from-layer="3225" from-port="0" to-layer="3226" to-port="0" />
		<edge from-layer="3226" from-port="1" to-layer="3227" to-port="1" />
		<edge from-layer="3227" from-port="2" to-layer="3229" to-port="0" />
		<edge from-layer="3228" from-port="0" to-layer="3229" to-port="1" />
		<edge from-layer="3229" from-port="2" to-layer="3230" to-port="0" />
		<edge from-layer="3230" from-port="1" to-layer="3231" to-port="1" />
		<edge from-layer="3231" from-port="2" to-layer="3232" to-port="1" />
		<edge from-layer="3232" from-port="2" to-layer="3236" to-port="0" />
		<edge from-layer="3232" from-port="2" to-layer="3243" to-port="0" />
		<edge from-layer="3232" from-port="2" to-layer="3274" to-port="0" />
		<edge from-layer="3233" from-port="0" to-layer="3244" to-port="0" />
		<edge from-layer="3234" from-port="0" to-layer="3242" to-port="0" />
		<edge from-layer="3235" from-port="0" to-layer="3236" to-port="1" />
		<edge from-layer="3236" from-port="2" to-layer="3238" to-port="0" />
		<edge from-layer="3237" from-port="0" to-layer="3238" to-port="1" />
		<edge from-layer="3238" from-port="2" to-layer="3240" to-port="0" />
		<edge from-layer="3239" from-port="0" to-layer="3240" to-port="1" />
		<edge from-layer="3240" from-port="2" to-layer="3241" to-port="0" />
		<edge from-layer="3241" from-port="1" to-layer="3242" to-port="1" />
		<edge from-layer="3242" from-port="2" to-layer="3243" to-port="1" />
		<edge from-layer="3243" from-port="2" to-layer="3244" to-port="1" />
		<edge from-layer="3244" from-port="2" to-layer="3253" to-port="0" />
		<edge from-layer="3244" from-port="2" to-layer="3263" to-port="0" />
		<edge from-layer="3245" from-port="0" to-layer="3246" to-port="0" />
		<edge from-layer="3246" from-port="1" to-layer="3249" to-port="0" />
		<edge from-layer="3247" from-port="0" to-layer="3248" to-port="0" />
		<edge from-layer="3248" from-port="1" to-layer="3249" to-port="1" />
		<edge from-layer="3249" from-port="2" to-layer="3251" to-port="0" />
		<edge from-layer="3250" from-port="0" to-layer="3251" to-port="1" />
		<edge from-layer="3251" from-port="2" to-layer="3252" to-port="0" />
		<edge from-layer="3252" from-port="1" to-layer="3253" to-port="1" />
		<edge from-layer="3253" from-port="2" to-layer="3254" to-port="0" />
		<edge from-layer="3254" from-port="1" to-layer="3264" to-port="0" />
		<edge from-layer="3255" from-port="0" to-layer="3256" to-port="0" />
		<edge from-layer="3256" from-port="1" to-layer="3259" to-port="0" />
		<edge from-layer="3257" from-port="0" to-layer="3258" to-port="0" />
		<edge from-layer="3258" from-port="1" to-layer="3259" to-port="1" />
		<edge from-layer="3259" from-port="2" to-layer="3261" to-port="0" />
		<edge from-layer="3260" from-port="0" to-layer="3261" to-port="1" />
		<edge from-layer="3261" from-port="2" to-layer="3262" to-port="0" />
		<edge from-layer="3262" from-port="1" to-layer="3263" to-port="1" />
		<edge from-layer="3263" from-port="2" to-layer="3264" to-port="1" />
		<edge from-layer="3264" from-port="2" to-layer="3273" to-port="0" />
		<edge from-layer="3265" from-port="0" to-layer="3266" to-port="0" />
		<edge from-layer="3266" from-port="1" to-layer="3269" to-port="0" />
		<edge from-layer="3267" from-port="0" to-layer="3268" to-port="0" />
		<edge from-layer="3268" from-port="1" to-layer="3269" to-port="1" />
		<edge from-layer="3269" from-port="2" to-layer="3271" to-port="0" />
		<edge from-layer="3270" from-port="0" to-layer="3271" to-port="1" />
		<edge from-layer="3271" from-port="2" to-layer="3272" to-port="0" />
		<edge from-layer="3272" from-port="1" to-layer="3273" to-port="1" />
		<edge from-layer="3273" from-port="2" to-layer="3274" to-port="1" />
		<edge from-layer="3274" from-port="2" to-layer="3278" to-port="0" />
		<edge from-layer="3274" from-port="2" to-layer="3387" to-port="0" />
		<edge from-layer="3274" from-port="2" to-layer="3285" to-port="0" />
		<edge from-layer="3275" from-port="0" to-layer="3286" to-port="0" />
		<edge from-layer="3276" from-port="0" to-layer="3284" to-port="0" />
		<edge from-layer="3277" from-port="0" to-layer="3278" to-port="1" />
		<edge from-layer="3278" from-port="2" to-layer="3280" to-port="0" />
		<edge from-layer="3279" from-port="0" to-layer="3280" to-port="1" />
		<edge from-layer="3280" from-port="2" to-layer="3282" to-port="0" />
		<edge from-layer="3281" from-port="0" to-layer="3282" to-port="1" />
		<edge from-layer="3282" from-port="2" to-layer="3283" to-port="0" />
		<edge from-layer="3283" from-port="1" to-layer="3284" to-port="1" />
		<edge from-layer="3284" from-port="2" to-layer="3285" to-port="1" />
		<edge from-layer="3285" from-port="2" to-layer="3286" to-port="1" />
		<edge from-layer="3286" from-port="2" to-layer="3364" to-port="0" />
		<edge from-layer="3286" from-port="2" to-layer="3327" to-port="0" />
		<edge from-layer="3286" from-port="2" to-layer="3295" to-port="0" />
		<edge from-layer="3287" from-port="0" to-layer="3288" to-port="0" />
		<edge from-layer="3288" from-port="1" to-layer="3291" to-port="0" />
		<edge from-layer="3289" from-port="0" to-layer="3290" to-port="0" />
		<edge from-layer="3290" from-port="1" to-layer="3291" to-port="1" />
		<edge from-layer="3291" from-port="2" to-layer="3293" to-port="0" />
		<edge from-layer="3292" from-port="0" to-layer="3293" to-port="1" />
		<edge from-layer="3293" from-port="2" to-layer="3294" to-port="0" />
		<edge from-layer="3294" from-port="1" to-layer="3295" to-port="1" />
		<edge from-layer="3295" from-port="2" to-layer="3297" to-port="0" />
		<edge from-layer="3296" from-port="0" to-layer="3297" to-port="1" />
		<edge from-layer="3297" from-port="2" to-layer="3299" to-port="0" />
		<edge from-layer="3298" from-port="0" to-layer="3299" to-port="1" />
		<edge from-layer="3299" from-port="2" to-layer="3300" to-port="0" />
		<edge from-layer="3299" from-port="2" to-layer="3305" to-port="0" />
		<edge from-layer="3299" from-port="2" to-layer="3312" to-port="0" />
		<edge from-layer="3300" from-port="2" to-layer="3315" to-port="0" />
		<edge from-layer="3301" from-port="0" to-layer="3305" to-port="1" />
		<edge from-layer="3302" from-port="0" to-layer="3305" to-port="2" />
		<edge from-layer="3303" from-port="0" to-layer="3305" to-port="3" />
		<edge from-layer="3304" from-port="0" to-layer="3305" to-port="4" />
		<edge from-layer="3305" from-port="5" to-layer="3307" to-port="0" />
		<edge from-layer="3306" from-port="0" to-layer="3307" to-port="1" />
		<edge from-layer="3307" from-port="2" to-layer="3313" to-port="0" />
		<edge from-layer="3308" from-port="0" to-layer="3312" to-port="1" />
		<edge from-layer="3309" from-port="0" to-layer="3312" to-port="2" />
		<edge from-layer="3310" from-port="0" to-layer="3312" to-port="3" />
		<edge from-layer="3311" from-port="0" to-layer="3312" to-port="4" />
		<edge from-layer="3312" from-port="5" to-layer="3313" to-port="1" />
		<edge from-layer="3313" from-port="2" to-layer="3314" to-port="0" />
		<edge from-layer="3314" from-port="2" to-layer="3315" to-port="1" />
		<edge from-layer="3315" from-port="2" to-layer="3374" to-port="0" />
		<edge from-layer="3316" from-port="1" to-layer="3318" to-port="0" />
		<edge from-layer="3317" from-port="0" to-layer="3318" to-port="2" />
		<edge from-layer="3318" from-port="3" to-layer="3348" to-port="0" />
		<edge from-layer="3319" from-port="0" to-layer="3320" to-port="0" />
		<edge from-layer="3320" from-port="1" to-layer="3323" to-port="0" />
		<edge from-layer="3321" from-port="0" to-layer="3322" to-port="0" />
		<edge from-layer="3322" from-port="1" to-layer="3323" to-port="1" />
		<edge from-layer="3323" from-port="2" to-layer="3325" to-port="0" />
		<edge from-layer="3324" from-port="0" to-layer="3325" to-port="1" />
		<edge from-layer="3325" from-port="2" to-layer="3326" to-port="0" />
		<edge from-layer="3326" from-port="1" to-layer="3327" to-port="1" />
		<edge from-layer="3327" from-port="2" to-layer="3329" to-port="0" />
		<edge from-layer="3328" from-port="0" to-layer="3329" to-port="1" />
		<edge from-layer="3329" from-port="2" to-layer="3331" to-port="0" />
		<edge from-layer="3330" from-port="0" to-layer="3331" to-port="1" />
		<edge from-layer="3331" from-port="2" to-layer="3344" to-port="0" />
		<edge from-layer="3331" from-port="2" to-layer="3332" to-port="0" />
		<edge from-layer="3331" from-port="2" to-layer="3337" to-port="0" />
		<edge from-layer="3332" from-port="2" to-layer="3347" to-port="0" />
		<edge from-layer="3333" from-port="0" to-layer="3337" to-port="1" />
		<edge from-layer="3334" from-port="0" to-layer="3337" to-port="2" />
		<edge from-layer="3335" from-port="0" to-layer="3337" to-port="3" />
		<edge from-layer="3336" from-port="0" to-layer="3337" to-port="4" />
		<edge from-layer="3337" from-port="5" to-layer="3339" to-port="0" />
		<edge from-layer="3338" from-port="0" to-layer="3339" to-port="1" />
		<edge from-layer="3339" from-port="2" to-layer="3345" to-port="0" />
		<edge from-layer="3340" from-port="0" to-layer="3344" to-port="1" />
		<edge from-layer="3341" from-port="0" to-layer="3344" to-port="2" />
		<edge from-layer="3342" from-port="0" to-layer="3344" to-port="3" />
		<edge from-layer="3343" from-port="0" to-layer="3344" to-port="4" />
		<edge from-layer="3344" from-port="5" to-layer="3345" to-port="1" />
		<edge from-layer="3345" from-port="2" to-layer="3346" to-port="0" />
		<edge from-layer="3346" from-port="2" to-layer="3347" to-port="1" />
		<edge from-layer="3347" from-port="2" to-layer="3348" to-port="1" />
		<edge from-layer="3348" from-port="2" to-layer="3349" to-port="0" />
		<edge from-layer="3348" from-port="2" to-layer="3491" to-port="0" />
		<edge from-layer="3349" from-port="2" to-layer="3350" to-port="0" />
		<edge from-layer="3350" from-port="2" to-layer="3352" to-port="0" />
		<edge from-layer="3351" from-port="0" to-layer="3352" to-port="1" />
		<edge from-layer="3352" from-port="2" to-layer="3374" to-port="1" />
		<edge from-layer="3353" from-port="1" to-layer="3355" to-port="0" />
		<edge from-layer="3354" from-port="0" to-layer="3355" to-port="2" />
		<edge from-layer="3355" from-port="3" to-layer="3369" to-port="0" />
		<edge from-layer="3356" from-port="0" to-layer="3357" to-port="0" />
		<edge from-layer="3357" from-port="1" to-layer="3360" to-port="0" />
		<edge from-layer="3358" from-port="0" to-layer="3359" to-port="0" />
		<edge from-layer="3359" from-port="1" to-layer="3360" to-port="1" />
		<edge from-layer="3360" from-port="2" to-layer="3362" to-port="0" />
		<edge from-layer="3361" from-port="0" to-layer="3362" to-port="1" />
		<edge from-layer="3362" from-port="2" to-layer="3363" to-port="0" />
		<edge from-layer="3363" from-port="1" to-layer="3364" to-port="1" />
		<edge from-layer="3364" from-port="2" to-layer="3366" to-port="0" />
		<edge from-layer="3365" from-port="0" to-layer="3366" to-port="1" />
		<edge from-layer="3366" from-port="2" to-layer="3368" to-port="0" />
		<edge from-layer="3367" from-port="0" to-layer="3368" to-port="1" />
		<edge from-layer="3368" from-port="2" to-layer="3369" to-port="1" />
		<edge from-layer="3369" from-port="2" to-layer="3370" to-port="0" />
		<edge from-layer="3369" from-port="2" to-layer="3490" to-port="0" />
		<edge from-layer="3370" from-port="2" to-layer="3371" to-port="0" />
		<edge from-layer="3371" from-port="2" to-layer="3373" to-port="0" />
		<edge from-layer="3372" from-port="0" to-layer="3373" to-port="1" />
		<edge from-layer="3373" from-port="2" to-layer="3374" to-port="2" />
		<edge from-layer="3374" from-port="5" to-layer="3376" to-port="0" />
		<edge from-layer="3375" from-port="0" to-layer="3376" to-port="1" />
		<edge from-layer="3376" from-port="2" to-layer="3377" to-port="0" />
		<edge from-layer="3377" from-port="2" to-layer="3386" to-port="0" />
		<edge from-layer="3378" from-port="0" to-layer="3379" to-port="0" />
		<edge from-layer="3379" from-port="1" to-layer="3382" to-port="0" />
		<edge from-layer="3380" from-port="0" to-layer="3381" to-port="0" />
		<edge from-layer="3381" from-port="1" to-layer="3382" to-port="1" />
		<edge from-layer="3382" from-port="2" to-layer="3384" to-port="0" />
		<edge from-layer="3383" from-port="0" to-layer="3384" to-port="1" />
		<edge from-layer="3384" from-port="2" to-layer="3385" to-port="0" />
		<edge from-layer="3385" from-port="1" to-layer="3386" to-port="1" />
		<edge from-layer="3386" from-port="2" to-layer="3387" to-port="1" />
		<edge from-layer="3387" from-port="2" to-layer="3398" to-port="0" />
		<edge from-layer="3387" from-port="2" to-layer="3391" to-port="0" />
		<edge from-layer="3387" from-port="2" to-layer="3429" to-port="0" />
		<edge from-layer="3388" from-port="0" to-layer="3399" to-port="0" />
		<edge from-layer="3389" from-port="0" to-layer="3397" to-port="0" />
		<edge from-layer="3390" from-port="0" to-layer="3391" to-port="1" />
		<edge from-layer="3391" from-port="2" to-layer="3393" to-port="0" />
		<edge from-layer="3392" from-port="0" to-layer="3393" to-port="1" />
		<edge from-layer="3393" from-port="2" to-layer="3395" to-port="0" />
		<edge from-layer="3394" from-port="0" to-layer="3395" to-port="1" />
		<edge from-layer="3395" from-port="2" to-layer="3396" to-port="0" />
		<edge from-layer="3396" from-port="1" to-layer="3397" to-port="1" />
		<edge from-layer="3397" from-port="2" to-layer="3398" to-port="1" />
		<edge from-layer="3398" from-port="2" to-layer="3399" to-port="1" />
		<edge from-layer="3399" from-port="2" to-layer="3408" to-port="0" />
		<edge from-layer="3399" from-port="2" to-layer="3418" to-port="0" />
		<edge from-layer="3400" from-port="0" to-layer="3401" to-port="0" />
		<edge from-layer="3401" from-port="1" to-layer="3404" to-port="0" />
		<edge from-layer="3402" from-port="0" to-layer="3403" to-port="0" />
		<edge from-layer="3403" from-port="1" to-layer="3404" to-port="1" />
		<edge from-layer="3404" from-port="2" to-layer="3406" to-port="0" />
		<edge from-layer="3405" from-port="0" to-layer="3406" to-port="1" />
		<edge from-layer="3406" from-port="2" to-layer="3407" to-port="0" />
		<edge from-layer="3407" from-port="1" to-layer="3408" to-port="1" />
		<edge from-layer="3408" from-port="2" to-layer="3409" to-port="0" />
		<edge from-layer="3409" from-port="1" to-layer="3419" to-port="0" />
		<edge from-layer="3410" from-port="0" to-layer="3411" to-port="0" />
		<edge from-layer="3411" from-port="1" to-layer="3414" to-port="0" />
		<edge from-layer="3412" from-port="0" to-layer="3413" to-port="0" />
		<edge from-layer="3413" from-port="1" to-layer="3414" to-port="1" />
		<edge from-layer="3414" from-port="2" to-layer="3416" to-port="0" />
		<edge from-layer="3415" from-port="0" to-layer="3416" to-port="1" />
		<edge from-layer="3416" from-port="2" to-layer="3417" to-port="0" />
		<edge from-layer="3417" from-port="1" to-layer="3418" to-port="1" />
		<edge from-layer="3418" from-port="2" to-layer="3419" to-port="1" />
		<edge from-layer="3419" from-port="2" to-layer="3428" to-port="0" />
		<edge from-layer="3420" from-port="0" to-layer="3421" to-port="0" />
		<edge from-layer="3421" from-port="1" to-layer="3424" to-port="0" />
		<edge from-layer="3422" from-port="0" to-layer="3423" to-port="0" />
		<edge from-layer="3423" from-port="1" to-layer="3424" to-port="1" />
		<edge from-layer="3424" from-port="2" to-layer="3426" to-port="0" />
		<edge from-layer="3425" from-port="0" to-layer="3426" to-port="1" />
		<edge from-layer="3426" from-port="2" to-layer="3427" to-port="0" />
		<edge from-layer="3427" from-port="1" to-layer="3428" to-port="1" />
		<edge from-layer="3428" from-port="2" to-layer="3429" to-port="1" />
		<edge from-layer="3429" from-port="2" to-layer="3569" to-port="0" />
		<edge from-layer="3429" from-port="2" to-layer="3432" to-port="0" />
		<edge from-layer="3429" from-port="2" to-layer="3439" to-port="0" />
		<edge from-layer="3430" from-port="0" to-layer="3438" to-port="0" />
		<edge from-layer="3431" from-port="0" to-layer="3432" to-port="1" />
		<edge from-layer="3432" from-port="2" to-layer="3434" to-port="0" />
		<edge from-layer="3433" from-port="0" to-layer="3434" to-port="1" />
		<edge from-layer="3434" from-port="2" to-layer="3436" to-port="0" />
		<edge from-layer="3435" from-port="0" to-layer="3436" to-port="1" />
		<edge from-layer="3436" from-port="2" to-layer="3437" to-port="0" />
		<edge from-layer="3437" from-port="1" to-layer="3438" to-port="1" />
		<edge from-layer="3438" from-port="2" to-layer="3439" to-port="1" />
		<edge from-layer="3439" from-port="2" to-layer="3440" to-port="1" />
		<edge from-layer="3440" from-port="2" to-layer="3527" to-port="0" />
		<edge from-layer="3440" from-port="2" to-layer="3467" to-port="0" />
		<edge from-layer="3440" from-port="2" to-layer="3449" to-port="0" />
		<edge from-layer="3441" from-port="0" to-layer="3442" to-port="0" />
		<edge from-layer="3442" from-port="1" to-layer="3445" to-port="0" />
		<edge from-layer="3443" from-port="0" to-layer="3444" to-port="0" />
		<edge from-layer="3444" from-port="1" to-layer="3445" to-port="1" />
		<edge from-layer="3445" from-port="2" to-layer="3447" to-port="0" />
		<edge from-layer="3446" from-port="0" to-layer="3447" to-port="1" />
		<edge from-layer="3447" from-port="2" to-layer="3448" to-port="0" />
		<edge from-layer="3448" from-port="1" to-layer="3449" to-port="1" />
		<edge from-layer="3449" from-port="2" to-layer="3451" to-port="0" />
		<edge from-layer="3450" from-port="0" to-layer="3451" to-port="1" />
		<edge from-layer="3451" from-port="2" to-layer="3453" to-port="0" />
		<edge from-layer="3452" from-port="0" to-layer="3453" to-port="1" />
		<edge from-layer="3453" from-port="2" to-layer="3454" to-port="1" />
		<edge from-layer="3454" from-port="2" to-layer="3552" to-port="0" />
		<edge from-layer="3454" from-port="2" to-layer="3455" to-port="0" />
		<edge from-layer="3456" from-port="1" to-layer="3458" to-port="0" />
		<edge from-layer="3457" from-port="0" to-layer="3458" to-port="2" />
		<edge from-layer="3458" from-port="3" to-layer="3488" to-port="0" />
		<edge from-layer="3459" from-port="0" to-layer="3460" to-port="0" />
		<edge from-layer="3460" from-port="1" to-layer="3463" to-port="0" />
		<edge from-layer="3461" from-port="0" to-layer="3462" to-port="0" />
		<edge from-layer="3462" from-port="1" to-layer="3463" to-port="1" />
		<edge from-layer="3463" from-port="2" to-layer="3465" to-port="0" />
		<edge from-layer="3464" from-port="0" to-layer="3465" to-port="1" />
		<edge from-layer="3465" from-port="2" to-layer="3466" to-port="0" />
		<edge from-layer="3466" from-port="1" to-layer="3467" to-port="1" />
		<edge from-layer="3467" from-port="2" to-layer="3469" to-port="0" />
		<edge from-layer="3468" from-port="0" to-layer="3469" to-port="1" />
		<edge from-layer="3469" from-port="2" to-layer="3471" to-port="0" />
		<edge from-layer="3470" from-port="0" to-layer="3471" to-port="1" />
		<edge from-layer="3471" from-port="2" to-layer="3484" to-port="0" />
		<edge from-layer="3471" from-port="2" to-layer="3477" to-port="0" />
		<edge from-layer="3471" from-port="2" to-layer="3472" to-port="0" />
		<edge from-layer="3472" from-port="2" to-layer="3487" to-port="0" />
		<edge from-layer="3473" from-port="0" to-layer="3477" to-port="1" />
		<edge from-layer="3474" from-port="0" to-layer="3477" to-port="2" />
		<edge from-layer="3475" from-port="0" to-layer="3477" to-port="3" />
		<edge from-layer="3476" from-port="0" to-layer="3477" to-port="4" />
		<edge from-layer="3477" from-port="5" to-layer="3479" to-port="0" />
		<edge from-layer="3478" from-port="0" to-layer="3479" to-port="1" />
		<edge from-layer="3479" from-port="2" to-layer="3485" to-port="0" />
		<edge from-layer="3480" from-port="0" to-layer="3484" to-port="1" />
		<edge from-layer="3481" from-port="0" to-layer="3484" to-port="2" />
		<edge from-layer="3482" from-port="0" to-layer="3484" to-port="3" />
		<edge from-layer="3483" from-port="0" to-layer="3484" to-port="4" />
		<edge from-layer="3484" from-port="5" to-layer="3485" to-port="1" />
		<edge from-layer="3485" from-port="2" to-layer="3486" to-port="0" />
		<edge from-layer="3486" from-port="2" to-layer="3487" to-port="1" />
		<edge from-layer="3487" from-port="2" to-layer="3488" to-port="1" />
		<edge from-layer="3488" from-port="2" to-layer="3489" to-port="0" />
		<edge from-layer="3488" from-port="2" to-layer="3548" to-port="0" />
		<edge from-layer="3518" from-port="0" to-layer="3622" to-port="0" />
		<edge from-layer="3519" from-port="0" to-layer="3520" to-port="0" />
		<edge from-layer="3520" from-port="1" to-layer="3523" to-port="0" />
		<edge from-layer="3521" from-port="0" to-layer="3522" to-port="0" />
		<edge from-layer="3522" from-port="1" to-layer="3523" to-port="1" />
		<edge from-layer="3523" from-port="2" to-layer="3525" to-port="0" />
		<edge from-layer="3524" from-port="0" to-layer="3525" to-port="1" />
		<edge from-layer="3525" from-port="2" to-layer="3526" to-port="0" />
		<edge from-layer="3526" from-port="1" to-layer="3527" to-port="1" />
		<edge from-layer="3527" from-port="2" to-layer="3529" to-port="0" />
		<edge from-layer="3528" from-port="0" to-layer="3529" to-port="1" />
		<edge from-layer="3529" from-port="2" to-layer="3531" to-port="0" />
		<edge from-layer="3530" from-port="0" to-layer="3531" to-port="1" />
		<edge from-layer="3531" from-port="2" to-layer="3532" to-port="0" />
		<edge from-layer="3531" from-port="2" to-layer="3537" to-port="0" />
		<edge from-layer="3531" from-port="2" to-layer="3544" to-port="0" />
		<edge from-layer="3532" from-port="2" to-layer="3547" to-port="0" />
		<edge from-layer="3533" from-port="0" to-layer="3537" to-port="1" />
		<edge from-layer="3534" from-port="0" to-layer="3537" to-port="2" />
		<edge from-layer="3535" from-port="0" to-layer="3537" to-port="3" />
		<edge from-layer="3536" from-port="0" to-layer="3537" to-port="4" />
		<edge from-layer="3537" from-port="5" to-layer="3539" to-port="0" />
		<edge from-layer="3538" from-port="0" to-layer="3539" to-port="1" />
		<edge from-layer="3539" from-port="2" to-layer="3545" to-port="0" />
		<edge from-layer="3540" from-port="0" to-layer="3544" to-port="1" />
		<edge from-layer="3541" from-port="0" to-layer="3544" to-port="2" />
		<edge from-layer="3542" from-port="0" to-layer="3544" to-port="3" />
		<edge from-layer="3543" from-port="0" to-layer="3544" to-port="4" />
		<edge from-layer="3544" from-port="5" to-layer="3545" to-port="1" />
		<edge from-layer="3545" from-port="2" to-layer="3546" to-port="0" />
		<edge from-layer="3546" from-port="2" to-layer="3547" to-port="1" />
		<edge from-layer="3547" from-port="2" to-layer="3556" to-port="0" />
		<edge from-layer="3548" from-port="2" to-layer="3549" to-port="0" />
		<edge from-layer="3549" from-port="2" to-layer="3551" to-port="0" />
		<edge from-layer="3550" from-port="0" to-layer="3551" to-port="1" />
		<edge from-layer="3551" from-port="2" to-layer="3556" to-port="1" />
		<edge from-layer="3552" from-port="2" to-layer="3553" to-port="0" />
		<edge from-layer="3553" from-port="2" to-layer="3555" to-port="0" />
		<edge from-layer="3554" from-port="0" to-layer="3555" to-port="1" />
		<edge from-layer="3555" from-port="2" to-layer="3556" to-port="2" />
		<edge from-layer="3556" from-port="5" to-layer="3558" to-port="0" />
		<edge from-layer="3557" from-port="0" to-layer="3558" to-port="1" />
		<edge from-layer="3558" from-port="2" to-layer="3559" to-port="0" />
		<edge from-layer="3559" from-port="2" to-layer="3568" to-port="0" />
		<edge from-layer="3560" from-port="0" to-layer="3561" to-port="0" />
		<edge from-layer="3561" from-port="1" to-layer="3564" to-port="0" />
		<edge from-layer="3562" from-port="0" to-layer="3563" to-port="0" />
		<edge from-layer="3563" from-port="1" to-layer="3564" to-port="1" />
		<edge from-layer="3564" from-port="2" to-layer="3566" to-port="0" />
		<edge from-layer="3565" from-port="0" to-layer="3566" to-port="1" />
		<edge from-layer="3566" from-port="2" to-layer="3567" to-port="0" />
		<edge from-layer="3567" from-port="1" to-layer="3568" to-port="1" />
		<edge from-layer="3568" from-port="2" to-layer="3569" to-port="1" />
		<edge from-layer="3569" from-port="2" to-layer="3573" to-port="0" />
		<edge from-layer="3569" from-port="2" to-layer="3611" to-port="0" />
		<edge from-layer="3569" from-port="2" to-layer="3580" to-port="0" />
		<edge from-layer="3570" from-port="0" to-layer="3581" to-port="0" />
		<edge from-layer="3571" from-port="0" to-layer="3579" to-port="0" />
		<edge from-layer="3572" from-port="0" to-layer="3573" to-port="1" />
		<edge from-layer="3573" from-port="2" to-layer="3575" to-port="0" />
		<edge from-layer="3574" from-port="0" to-layer="3575" to-port="1" />
		<edge from-layer="3575" from-port="2" to-layer="3577" to-port="0" />
		<edge from-layer="3576" from-port="0" to-layer="3577" to-port="1" />
		<edge from-layer="3577" from-port="2" to-layer="3578" to-port="0" />
		<edge from-layer="3578" from-port="1" to-layer="3579" to-port="1" />
		<edge from-layer="3579" from-port="2" to-layer="3580" to-port="1" />
		<edge from-layer="3580" from-port="2" to-layer="3581" to-port="1" />
		<edge from-layer="3581" from-port="2" to-layer="3590" to-port="0" />
		<edge from-layer="3581" from-port="2" to-layer="3600" to-port="0" />
		<edge from-layer="3582" from-port="0" to-layer="3583" to-port="0" />
		<edge from-layer="3583" from-port="1" to-layer="3586" to-port="0" />
		<edge from-layer="3584" from-port="0" to-layer="3585" to-port="0" />
		<edge from-layer="3585" from-port="1" to-layer="3586" to-port="1" />
		<edge from-layer="3586" from-port="2" to-layer="3588" to-port="0" />
		<edge from-layer="3587" from-port="0" to-layer="3588" to-port="1" />
		<edge from-layer="3588" from-port="2" to-layer="3589" to-port="0" />
		<edge from-layer="3589" from-port="1" to-layer="3590" to-port="1" />
		<edge from-layer="3590" from-port="2" to-layer="3591" to-port="0" />
		<edge from-layer="3591" from-port="1" to-layer="3601" to-port="0" />
		<edge from-layer="3592" from-port="0" to-layer="3593" to-port="0" />
		<edge from-layer="3593" from-port="1" to-layer="3596" to-port="0" />
		<edge from-layer="3594" from-port="0" to-layer="3595" to-port="0" />
		<edge from-layer="3595" from-port="1" to-layer="3596" to-port="1" />
		<edge from-layer="3596" from-port="2" to-layer="3598" to-port="0" />
		<edge from-layer="3597" from-port="0" to-layer="3598" to-port="1" />
		<edge from-layer="3598" from-port="2" to-layer="3599" to-port="0" />
		<edge from-layer="3599" from-port="1" to-layer="3600" to-port="1" />
		<edge from-layer="3600" from-port="2" to-layer="3601" to-port="1" />
		<edge from-layer="3601" from-port="2" to-layer="3610" to-port="0" />
		<edge from-layer="3602" from-port="0" to-layer="3603" to-port="0" />
		<edge from-layer="3603" from-port="1" to-layer="3606" to-port="0" />
		<edge from-layer="3604" from-port="0" to-layer="3605" to-port="0" />
		<edge from-layer="3605" from-port="1" to-layer="3606" to-port="1" />
		<edge from-layer="3606" from-port="2" to-layer="3608" to-port="0" />
		<edge from-layer="3607" from-port="0" to-layer="3608" to-port="1" />
		<edge from-layer="3608" from-port="2" to-layer="3609" to-port="0" />
		<edge from-layer="3609" from-port="1" to-layer="3610" to-port="1" />
		<edge from-layer="3610" from-port="2" to-layer="3611" to-port="1" />
		<edge from-layer="3611" from-port="2" to-layer="3614" to-port="0" />
		<edge from-layer="3611" from-port="2" to-layer="3621" to-port="0" />
		<edge from-layer="3612" from-port="0" to-layer="3620" to-port="0" />
		<edge from-layer="3613" from-port="0" to-layer="3614" to-port="1" />
		<edge from-layer="3614" from-port="2" to-layer="3616" to-port="0" />
		<edge from-layer="3615" from-port="0" to-layer="3616" to-port="1" />
		<edge from-layer="3616" from-port="2" to-layer="3618" to-port="0" />
		<edge from-layer="3617" from-port="0" to-layer="3618" to-port="1" />
		<edge from-layer="3618" from-port="2" to-layer="3619" to-port="0" />
		<edge from-layer="3619" from-port="1" to-layer="3620" to-port="1" />
		<edge from-layer="3620" from-port="2" to-layer="3621" to-port="1" />
		<edge from-layer="3621" from-port="2" to-layer="3622" to-port="1" />
		<edge from-layer="3622" from-port="2" to-layer="3631" to-port="0" />
		<edge from-layer="3623" from-port="0" to-layer="3624" to-port="0" />
		<edge from-layer="3624" from-port="1" to-layer="3627" to-port="0" />
		<edge from-layer="3625" from-port="0" to-layer="3626" to-port="0" />
		<edge from-layer="3626" from-port="1" to-layer="3627" to-port="1" />
		<edge from-layer="3627" from-port="2" to-layer="3629" to-port="0" />
		<edge from-layer="3628" from-port="0" to-layer="3629" to-port="1" />
		<edge from-layer="3629" from-port="2" to-layer="3630" to-port="0" />
		<edge from-layer="3630" from-port="1" to-layer="3631" to-port="1" />
		<edge from-layer="3631" from-port="2" to-layer="3632" to-port="0" />
	</edges>
	<rt_info>
		<Runtime_version value="2025.1.0-18503-6fec06580ab-releases/2025/1" />
		<conversion_parameters>
			<framework value="pytorch" />
			<is_python_object value="True" />
		</conversion_parameters>
		<nncf>
			<friendly_names_were_updated value="True" />
			<weight_compression>
				<advanced_parameters value="{'statistics_path': None, 'awq_params': {'subset_size': 32, 'percent_to_apply': 0.002, 'alpha_min': 0.0, 'alpha_max': 1.0, 'steps': 100}, 'scale_estimation_params': {'subset_size': 64, 'initial_steps': 5, 'scale_steps': 5, 'weight_penalty': -1.0}, 'gptq_params': {'damp_percent': 0.1, 'block_size': 128, 'subset_size': 128}, 'lora_correction_params': {'adapter_rank': 8, 'num_iterations': 3, 'apply_regularization': True, 'subset_size': 128, 'use_int8_adapters': True}, 'lora_adapter_rank': 256}" />
				<all_layers value="False" />
				<awq value="False" />
				<backup_mode value="int8_asym" />
				<compression_format value="dequantize" />
				<gptq value="False" />
				<group_size value="-1" />
				<ignored_scope value="[]" />
				<lora_correction value="False" />
				<mode value="int8_asym" />
				<ratio value="1.0" />
				<scale_estimation value="False" />
				<sensitivity_metric value="weight_quantization_error" />
			</weight_compression>
		</nncf>
		<optimum>
			<optimum_intel_version value="1.22.0" />
			<optimum_version value="1.24.0" />
			<pytorch_version value="2.7.0+cu118" />
			<transformers_version value="4.48.3" />
		</optimum>
		<runtime_options>
			<ACTIVATIONS_SCALE_FACTOR value="8.0" />
		</runtime_options>
	</rt_info>
</net>
